py_file/results/best_lwpi_model.pth (torch, 539861 bytes, 23 tensors)

wavelet_layer.kappa1 f4 [32]
000000 55 b3 e6 40 e0 ff c7 40 1f de 48 40 7d 49 e1 40
       7.209391 6.2499847 3.1385572 7.0402207
000010 0d 51 6c 40 82 82 bc 40 95 7e e7 40 5e b9 62 3f
       3.692447 5.890931 7.234202 0.885641
000020 29 49 1f 41 44 b8 69 3e d2 00 87 40 c5 c4 0c 41
       9.955361 0.22824198 4.21885 8.798039
000030 4e e0 01 40 cd 7a 1c 41 f0 9b 0e 41 87 63 31 40
       2.0293155 9.779981 8.913071 2.7716997
000040 5a ad db 40 f2 f2 f8 40 b1 39 e1 40 6f 8c bb 40
       6.864911 7.7796564 7.0382924 5.860893
000050 10 8c 63 40 a4 10 16 41 da c6 cb 3f 4a 03 f1 40
       3.5554237 9.379063 1.592006 7.5316515
000060 1a fd b5 40 eb 24 84 3f de a8 ff 40 e7 89 38 3e
       5.687146 1.0323766 7.9893637 0.18021356
000070 5b 8d bb 40 eb f6 00 41 f1 5c 82 3e 80 72 1a 40
       5.8610053 8.060283 0.25461534 2.4132385

wavelet_layer.kappa0 f4 [32]
000000 c3 2a f8 bd a6 c6 9d bd a2 a8 a0 bf 7b b8 b4 3f
       -0.12117531 -0.07703905 -1.2551463 1.4118799
000010 7b d5 17 3f 80 03 54 3f 75 59 b6 bf 3d 5b 81 be
       0.5931012 0.8281784 -1.424605 -0.25264922
000020 e7 cb ca 3f 5a 9c 32 bf 0b de fa 3f b7 2b a2 3e
       1.5843476 -0.69769824 1.9599012 0.31673977
000030 43 d5 40 bf b8 e4 40 3c 92 70 95 3f 23 d1 fc be
       -0.7532541 0.011773281 1.1674979 -0.4937831
000040 71 8e 3e 3f 7f c2 4b be 6d 5b f3 3f 40 6c 52 be
       0.744361 -0.19898413 1.9012276 -0.20549107
000050 61 2e a3 bf 0c 55 e5 3d e6 e5 dd 3f 5d dc bd 3f
       -1.2748529 0.11197862 1.7335784 1.4832875
000060 5b 64 47 be f5 da 79 3e 52 6d 36 3f a4 ec e9 3e
       -0.19471876 0.24399932 0.7126056 0.45688355
000070 25 33 d2 bd 0f 17 0a 40 fd 51 61 3f 49 7c 03 bf
       -0.10263661 2.1576574 0.8801573 -0.5136152

wavelet_layer.c f4 [32]
000000 0e 98 98 40 d7 0b a1 40 d8 ba 71 40 5a 1b 72 40
       4.7685614 5.0326953 3.777029 3.7829194
000010 dd 9d 65 40 27 83 3d 40 29 f5 bc 40 9d 1c 11 40
       3.5877602 2.96113 5.904927 2.2673714
000020 2c 82 15 40 02 ca 10 40 4c 55 23 40 ab 6e b8 40
       2.33607 2.2623296 2.552081 5.7635093
000030 18 99 95 40 b7 6a 8d 40 2c 86 b0 3f c0 d2 46 40
       4.674938 4.4192767 1.3790946 3.1066132
000040 ae b2 5e 40 87 8f 8f 3f b4 81 c7 40 59 f8 8c 40
       3.4796557 1.1215676 6.234583 4.405316
000050 ff c7 01 40 69 45 27 40 0e fe 03 40 7b 58 4a 40
       2.0278318 2.6136115 2.0623813 3.1616504
000060 a7 75 93 40 8f 29 59 3f f7 5d 9d 40 22 0f 86 3f
       4.608112 0.8482904 4.9177203 1.0473368
000070 c2 22 90 40 76 a2 11 40 c8 d3 99 3f 4c 7e ae 40
       4.504243 2.2755408 1.2017756 5.452917

features.0.weight f4 [64, 32, 3]
000000 02 2f 2d bd d4 6b a1 3d e2 8f 9d 3d f5 25 5f bd
       -0.04228116 0.07881895 0.07693459 -0.054479558
000010 53 0d 67 3c 77 f1 b2 3d 59 45 54 bd 2c ea 89 bd
       0.014102298 0.08737462 -0.051823948 -0.06734118
000020 fa 60 b5 3c 06 3c c1 3d 34 e0 24 bc 20 fa 98 3d
       0.022140969 0.09435277 -0.01006322 0.074695826
000030 92 73 b4 3d 79 42 c5 3d 05 ae cd 3d 3c 6e 0c 3e
       0.08811106 0.09631819 0.10042957 0.13713926
000040 8e da 9c 3d 39 b0 e9 bc 66 c1 dc 3b a1 f3 ce bd
       0.076588735 -0.028526412 0.006736922 -0.10105062
000050 b8 c3 71 bd 1e b4 af bd 5c 78 86 3b 2f 2a 19 3d
       -0.059024543 -0.085792765 0.0041037034 0.037393745
000060 f7 13 62 3d 0c d6 aa 3d cf 54 4c bd 89 38 8f 3d
       0.05519482 0.083416075 -0.049885567 0.06993205
000070 0e a6 78 3b f4 69 77 3d c1 19 5b 3d 01 e1 32 3c
       0.0037940773 0.06040378 0.053491358 0.010917903
000080 10 bb 04 bd 57 58 85 bd d6 7b 09 bd 1b 70 6d bd
       -0.03240496 -0.0651099 -0.033565365 -0.05796824
000090 e6 ea b7 3d 61 ae a9 bd d9 93 51 bd d5 37 6f 3c
       0.0898035 -0.08285213 -0.05116639 0.014600714
0000a0 16 00 07 be 51 c1 3d 3d c8 64 7b bb 47 63 33 3d
       -0.13183627 0.04632694 -0.003835963 0.04379585
0000b0 e0 15 f8 bc ce 02 c3 bd ee ff 02 bd c0 09 bc bd
       -0.030283868 -0.09522019 -0.031982355 -0.09181547
0000c0 38 7f a2 3d b6 05 fc ba 68 85 45 bd a3 ef 95 bd
       0.07934421 -0.0019227776 -0.04822293 -0.07321098
0000d0 43 24 00 be a9 7d 70 bd 33 8a b2 3d 4a 4e 27 3d
       -0.12513833 -0.05871359 0.08717766 0.040846147
0000e0 53 46 5b bd f0 11 3c 3d 14 77 e9 3d d9 2c 95 3d
       -0.053533863 0.045915544 0.113996655 0.07283945
0000f0 d8 5e 0a be 05 15 f7 3c ca 34 5f bd ab 02 8d 3c
       -0.13512743 0.03016139 -0.054493703 0.017213186
000100 0d 8a fa bc 57 02 a0 bd 13 cc 38 3c df c2 96 bd
       -0.030583406 -0.07812946 0.011279124 -0.073613875
000110 24 2a db 3c 8f 20 92 bd 91 50 b8 3d c4 21 e9 3d
       0.026753493 -0.07135116 0.08999742 0.113833934
000120 25 7d 96 3d 9c cc 5b 3d 5d 4d 61 bd 46 c7 79 3d
       0.07348088 0.053661928 -0.05500542 0.060981058
000130 a7 f6 71 3d 0a 4b 86 bd 9c e5 60 3d 0a de 3d 3c
       0.059073117 -0.06557281 0.054906473 0.011588583
000140 07 b7 1e bd 91 d5 c6 bc 84 e6 89 3c 07 3b b9 3d
       -0.038748767 -0.024271758 0.016833551 0.09044462
000150 6e 92 ce 3d 12 4a bc 3d 3e 58 d5 3d 0d 4f bd bd
       0.10086523 0.09193815 0.104172215 -0.09243593
000160 90 2f 58 bc 33 2e c2 bd f5 ba b8 bd b9 5d 6a 3c
       -0.0131949335 -0.09481468 -0.09020034 0.014304572
000170 52 0e 02 bd c8 10 a7 3c ec 3b b1 bc 81 f9 0b 3d
       -0.03175194 0.020393744 -0.021635018 0.034173492
000180 6d 8a b0 3c c5 09 d8 bd ce 8e 91 3d f7 f5 17 bc
       0.021550382 -0.105487384 0.07107316 -0.009274951
000190 da 1e 4d 3d 52 a1 6a bd 41 d2 eb bc e9 b8 5c 3d
       0.05007825 -0.057282753 -0.02878678 0.05388728
0001a0 ae 29 e8 bc 64 69 e7 bb 79 0b 05 3d 9f a1 84 bd
       -0.028340187 -0.007062124 0.032481644 -0.06476139
0001b0 9a 78 61 3d f4 fc 52 3d 76 d0 e5 bc 71 a2 1f 3d
       0.055046655 0.051510766 -0.028053503 0.038973276
0001c0 68 8a 96 bd 96 10 8c bd 40 d7 b3 3c c9 79 88 bc
       -0.07350618 -0.06839101 0.021953225 -0.016659634
0001d0 8b d7 e0 3c a3 e9 db bc 67 7e 29 3d 89 83 48 3d
       0.027446529 -0.026844805 0.041380312 0.048953567
0001e0 5a 97 24 be f0 1f 20 be 21 ba 13 be ff 69 26 3d
       -0.16073361 -0.15637183 -0.14426471 0.04062843
0001f0 41 8e 0a 3c 56 1a b8 bd 02 35 ab 3d 1e 7c 59 3d
       0.008456768 -0.08989398 0.0835972 0.053096883
000200 4d 65 71 3d 76 39 d5 3d e0 85 27 3e 9b de c0 3d
       0.0589345 0.104113504 0.16359663 0.094174586
000210 91 b1 48 3d 50 00 37 3d ba 1d ba bd fc 49 0b 3e
       0.048997466 0.044678032 -0.09087701 0.13602442
000220 8f f1 b0 3d 9f f0 e3 3d ef 1c 47 3b 2c 7f 2b bc
       0.08639824 0.11129879 0.0030382236 -0.010467332
000230 16 d0 aa bc d9 e4 09 3d 4d 17 70 bd 58 65 cf 3d
       -0.020851176 0.03366551 -0.05861597 0.10126752
000240 d0 f5 40 3b 10 ff 94 bc 40 69 f4 3c 6f 4e a5 bd
       0.002944339 -0.01818803 0.029835343 -0.08071601
000250 ef e0 86 3d 52 a4 01 3d 8d 39 0e 3e 10 88 68 3d
       0.065858714 0.03165085 0.13889141 0.056770384
000260 c1 f9 24 3d 5c 91 dc bd 51 7c 20 bd 25 8a a4 3c
       0.040277246 -0.107699126 -0.039181057 0.020085404
000270 95 70 94 3c 44 35 8d bd 72 33 a2 3d eb 66 78 bb
       0.01812009 -0.06894925 0.07919969 -0.003790314
000280 41 97 04 be 81 45 fd bb f9 31 07 3b f9 32 3c bd
       -0.12948324 -0.007729233 0.0020629151 -0.04594705
000290 68 97 63 bd 7f 2a 3a bd 91 ef 95 bd 54 4e bd bd
       -0.055564314 -0.045450684 -0.07321084 -0.092434555
0002a0 77 8b 47 bd 3f b2 04 be 62 00 b2 bb cc ac eb 3d
       -0.04871699 -0.1295862 -0.0054321745 0.11507568
0002b0 56 41 a1 3b b6 a8 f4 3c ba a5 d7 3d d8 c1 6b 3d
       0.0049211187 0.029865604 0.10529657 0.05755791
0002c0 2f 47 ac 3d 43 df 66 3c 84 51 cd 3d 4c b3 fd 3c
       0.08412015 0.014091316 0.100253135 0.030969284
0002d0 90 1f c2 bd b2 f1 c3 bd f5 81 9d 3c 0d ba e2 bd
       -0.09478676 -0.09567584 0.019227007 -0.110706426
0002e0 31 b2 81 3c d8 a3 bd bd d0 f2 bf 3b c6 68 c4 bc
       0.015832039 -0.09259766 0.005857803 -0.023975741
0002f0 01 67 4c bd 71 bd b5 bd e9 ea 12 bd 2b 24 cb bd
       -0.04990292 -0.08874024 -0.03586856 -0.09919008
000300 b6 9b 95 bd b9 85 a8 bd 11 3f 3c 3a 54 b3 b6 3c
       -0.0730509 -0.082286306 0.00071810285 0.022302307
000310 5f d1 c9 3d c1 ac 8a bd 91 52 76 bd 49 9d b0 bd
       0.098543875 -0.067712314 -0.060137335 -0.0862375
000320 62 10 a6 3d 4a 18 a8 bd 38 34 5d 3d cc 60 29 3d
       0.081085935 -0.08207758 0.054004878 0.04135208
000330 52 2a c9 bd 57 71 59 3d c3 88 a8 3d 35 5b bd 3b
       -0.09822525 0.053086605 0.0822921 0.005778695
000340 d8 61 6c bd 51 ae 35 3d 46 31 c8 bb b8 3d 12 3d
       -0.0577105 0.044355694 -0.0061093895 0.03570339
000350 44 3c 9c bd 44 2c df 3d b3 ba 50 3c 5d 10 b5 bc
       -0.07628682 0.10897115 0.012739825 -0.02210253
000360 c1 1e 56 bc 0b 1c 8f bd 7f a9 09 3d 88 b2 34 3d
       -0.013068856 -0.06987771 0.03360891 0.044115573
000370 b1 c5 e9 bc b0 d8 7b 3d df 5a 45 bd 13 d7 42 bd
       -0.02853665 0.061485946 -0.048182365 -0.047568392
000380 f1 c4 88 bd 97 2d cd bd 7f fe 0b bd e4 ac 84 3d
       -0.066781886 -0.10018461 -0.034178253 0.06478289
000390 bd 5b 84 3d 38 07 ac bc 9d 8b 69 3d 3b 97 7d 3d
       0.0646281 -0.020999536 0.05701791 0.061911803
0003a0 10 0e a6 bd e3 1b 7a bd ce 3a 89 bd 0d db 93 3d
       -0.08108151 -0.06106175 -0.06700669 0.07219515
0003b0 d0 b4 a0 3d d1 be 21 3c b0 43 d3 bd 94 a7 b4 3d
       0.07846987 0.009872154 -0.10315645 0.088210255
0003c0 d8 1e 8a 3d 02 52 af bd 88 0b 13 bd 06 02 88 bd
       0.06744164 -0.085605636 -0.03589967 -0.06641011
0003d0 46 d7 55 bd 94 b7 64 bd 4d 6b 45 bd 87 99 a7 3b
       -0.052207254 -0.055839136 -0.048198033 0.0051147374
0003e0 87 6b d6 bc 55 01 3d bc 1f 58 7d bc 88 48 94 3d
       -0.02617432 -0.011535962 -0.015462904 0.07240397
0003f0 a8 3c 24 be a6 d0 af bd 3e 75 15 be db 89 4b 3d
       -0.16038764 -0.085847184 -0.14595506 0.049692016

features.0.bias f4 [64]
000000 f0 44 f3 3d 35 43 2e be 64 e2 c2 bc d9 f8 bf bd
       0.11878383 -0.17017825 -0.023789592 -0.09373636
000010 cb 4d 02 3b f2 28 8e 3d 79 56 a4 bd 6d 8d a5 3d
       0.0019882794 0.069414034 -0.08024306 0.080836155
000020 0f 9f 81 bd ef 59 75 3d d6 e3 86 bb 24 fa 02 3e
       -0.06329166 0.05990022 -0.0041165156 0.12790734
000030 b6 2e 86 3d 8e ad d5 bb 7f ca 90 3d 49 53 af bd
       0.06551878 -0.0065209335 0.07069873 -0.08560807
000040 cf 90 83 3d 96 89 b9 bd fe a9 56 bc d9 95 9f bd
       0.064241044 -0.090594456 -0.013102053 -0.07792253
000050 b0 b1 5a 3d 8d 9c 8c 3c 30 a8 70 bc 9e 6e 73 3c
       0.053392112 0.017164493 -0.0146885365 0.014857916
000060 57 e5 57 bd 98 46 e6 3b a0 5a 9e 3c 4f 0c f2 bc
       -0.05270895 0.0070274584 0.019330323 -0.029546885
000070 56 14 b5 bc 97 d7 0b bd ae ad 92 bc 1c 17 6a bc
       -0.022104423 -0.03414115 -0.017905083 -0.014287736
000080 0a 29 a2 3d 80 d5 c6 3d 2b b4 04 be 33 5f 21 bd
       0.07917984 0.09708691 -0.12959354 -0.03939743
000090 d8 02 9e bc 31 a4 65 3d 2b a2 46 bc 91 7c 93 bc
       -0.019288465 0.05606479 -0.012123625 -0.018003734
0000a0 eb 40 68 3d 53 8b 14 bd fb 69 9a 3d f1 2f a8 b9
       0.056702536 -0.036265682 0.075397454 -0.00032079176
0000b0 d7 e2 69 3b c6 eb 57 bd 3d fe 89 3d a2 94 12 be
       0.0035688186 -0.052715085 0.06737945 -0.14314511
0000c0 a3 ab d7 3c 49 a7 55 3c 78 19 19 3e 60 37 89 bc
       0.02632696 0.013040372 0.14951122 -0.016750038
0000d0 40 a7 f5 3b 38 87 d1 3c 27 1f c8 3c 1d 45 fd bd
       0.0074967444 0.025577173 0.024428917 -0.12366698
0000e0 63 e7 15 3c 41 7b ac bd 89 16 b1 bc 69 45 c0 bd
       0.009149405 -0.08421946 -0.02161719 -0.09388239
0000f0 3b 7e de bc 0e 00 40 3d ab 4a 0b 3e d6 bb 68 3d
       -0.0271598 0.046875052 0.13602702 0.05681976

features.1.weight f4 [64]
000000 07 f1 7c 3f 90 1f 8b 3f 98 ac 79 3f b6 fd 85 3f
       0.9880528 1.0869007 0.9752898 1.0468051
000010 45 f4 77 3f ca 53 82 3f 1a da 82 3f 5a 44 78 3f
       0.968571 1.018182 1.0222809 0.96979296
000020 58 56 8a 3f 5c fb 7a 3f 83 43 6f 3f 87 a8 81 3f
       1.08076 0.98039794 0.9346239 1.0129555
000030 59 bc 80 3f c4 57 6a 3f 65 3d 8d 3f f2 50 94 3f
       1.0057479 0.9154017 1.1034361 1.1587203
000040 14 76 76 3f 96 a9 78 3f 9c 3c 70 3f 8b ba 7b 3f
       0.9627392 0.9713377 0.9384248 0.98331517
000050 dd 6f 85 3f 75 fe 7b 3f f4 c4 70 3f 36 b1 78 3f
       1.0424763 0.98435146 0.94050527 0.971454
000060 c0 8f 67 3f d5 46 83 3f 3f ac 75 3f 30 86 78 3f
       0.9045372 1.0255991 0.9596595 0.97079754
000070 2d 56 7a 3f 29 30 78 3f b0 75 59 3f ae d9 80 3f
       0.97787744 0.96948487 0.849452 1.006643
000080 46 a5 80 3f b8 0a 7d 3f 7b 61 77 3f 9f 36 8d 3f
       1.0050437 0.9884448 0.9663312 1.1032294
000090 79 06 83 3f 37 ae 80 3f 66 6d 6d 3f d8 93 87 3f
       1.023635 1.0053166 0.92745054 1.0591993
0000a0 b5 5d 82 3f ee 5f 80 3f 15 2b 78 3f c1 0c 70 3f
       1.0184847 1.0029275 0.9694074 0.9376946
0000b0 f8 8b 72 3f c0 76 7b 3f 8d b1 7d 3f 8f 0d 80 3f
       0.94744825 0.98228073 0.99099046 1.0004138
0000c0 5c f3 78 3f 6b 57 8a 3f c2 e6 79 3f 0f 83 7e 3f
       0.97246337 1.0807928 0.97617733 0.9941873
0000d0 67 36 84 3f 15 fc 77 3f e4 d3 83 3f 26 4c 80 3f
       1.0329102 0.9686902 1.0299039 1.0023239
0000e0 92 ec 79 3f 6f 69 77 3f fe 41 61 3f 49 fe 84 3f
       0.976266 0.96645254 0.8799132 1.0390102
0000f0 5e 22 7f 3f 0a 1e 74 3f a4 be 7b 3f 62 34 6b 3f
       0.99661815 0.95358336 0.9833777 0.91876805

features.1.bias f4 [64]
000000 06 61 31 bd bb 14 11 3c 9c f9 81 bc 49 61 ad bc
       -0.04330542 0.00885504 -0.015866093 -0.021164553
000010 de ac 7f bc 9d 9c 23 bc 07 f5 83 bd ec 10 41 bd
       -0.01560518 -0.00998607 -0.0644322 -0.04713528
000020 e8 f0 e9 ba e8 68 a2 bd f0 75 cd bc 22 b1 30 3d
       -0.0017848285 -0.079301655 -0.025080651 0.043137677
000030 7f 67 c0 bc c1 ad a6 bd b7 17 96 bc 56 3b 9b 3c
       -0.02348685 -0.0813861 -0.018321855 0.018949192
000040 a5 75 16 bc 2a 8e 43 bd 77 9f 33 3d 65 24 88 3d
       -0.009183322 -0.047743 0.04385325 0.06647567
000050 d9 8e 3d 3d c2 56 3a 3d bf f8 ba 3c bf 44 fa bd
       0.04627881 0.045492895 0.02282369 -0.122201435
000060 eb 91 e0 bd 28 aa ff bc b4 54 39 bc 28 7d ef 3d
       -0.10965332 -0.031209067 -0.011311699 0.116937935
000070 fc 1b 76 bd c6 a5 57 3b 34 e4 0c bd fc 3e a5 bd
       -0.06008528 0.0032905205 -0.03439732 -0.08068654
000080 5a 10 65 3c bb fa b8 bc d6 91 8b bd ac b0 41 3c
       0.013980949 -0.022580495 -0.068149254 0.011821907
000090 78 04 a7 3c b7 03 8a bd c2 99 1e bd 5f 3a a1 bd
       0.020387873 -0.0673899 -0.038720854 -0.078724615
0000a0 9d cd a4 bd 50 30 b5 3b 3f c1 69 bc 74 67 1f bd
       -0.0804703 0.005529441 -0.014267265 -0.03891702
0000b0 20 67 9d bd f3 f2 89 bd 51 b4 d7 bd cb 99 b1 3a
       -0.07685685 -0.06735792 -0.105324395 0.0013549862
0000c0 9c 89 10 bc 9e 71 1b bd ea 70 fe ba 66 c9 25 bd
       -0.008821871 -0.03795015 -0.0019412313 -0.04047527
0000d0 11 40 4f 3d 81 f8 5c bc c1 29 af 3c 6f c5 98 3d
       0.050598208 -0.013486982 0.021382215 0.074595325
0000e0 31 aa 58 bb 54 30 13 3e 47 86 f4 bd c1 9a 83 3d
       -0.0033060426 0.14373904 -0.11939674 0.06426001
0000f0 3d 9b 90 3c f6 25 97 bd 42 c5 d7 3c f1 8d 0c be
       0.017652148 -0.07380287 0.026339177 -0.13726021

features.1.running_mean f4 [64]
000000 9f 59 f3 3d 49 4a 2e be 41 12 c1 bc f3 fa bf bd
       0.11882328 -0.17020525 -0.023568274 -0.09374037
000010 4e af 03 3b e7 2f 8e 3d e5 23 a4 bd bb 65 a5 3d
       0.0020093503 0.069427304 -0.08014659 0.08076044
000020 1b b8 81 bd 86 5d 73 3d e2 f1 87 bb 49 00 03 3e
       -0.063339435 0.059415363 -0.0041487077 0.12793078
000030 ef 31 86 3d 96 3a d4 bb d9 c0 90 3d 00 61 af bd
       0.06552493 -0.0064767106 0.07068033 -0.08563423
000040 07 30 84 3d e9 04 b9 bd a0 fb 53 bc 17 77 9f bd
       0.06454473 -0.0903414 -0.01293841 -0.077863865
000050 71 2e 5c 3d cc 5d 8c 3c 18 62 6f bc e3 5c 6a 3c
       0.053755227 0.01713457 -0.01461079 0.0143043725
000060 9f 85 57 bd ff 13 e8 3b 03 68 9f 3c 1e f7 f1 bc
       -0.052617665 0.007082462 0.019458776 -0.02953678
000070 ba c7 ba bc 01 90 0c bd f7 a9 93 bc 31 73 6f bc
       -0.022800315 -0.03431702 -0.018025381 -0.014614866
000080 83 fc a1 3d 3e 7e c7 3d 78 88 04 be 30 2e 22 bd
       0.07909491 0.09740876 -0.12942684 -0.03959483
000090 0a de 9c bc d9 bd 63 3d 76 5b 45 bc f2 33 94 bc
       -0.019148845 0.055600975 -0.012045732 -0.018091176
0000a0 ff d4 67 3d 0a 89 14 bd 71 59 9a 3d cb 39 6c b8
       0.056599613 -0.036263503 0.07536591 -5.632061e-05
0000b0 1e 5e 5c 3b b7 f7 57 bd 61 ed 89 3d 25 bd 12 be
       0.0033625434 -0.052726474 0.067347296 -0.14329965
0000c0 5d cd d7 3c bb fb 54 3c ed 31 19 3e be 8a 87 bc
       0.026343042 0.01299947 0.14960451 -0.01654565
0000d0 2d c2 f8 3b b3 1f d1 3c 25 84 c7 3c 0e e1 fc bd
       0.007591507 0.02552781 0.024355004 -0.12347613
0000e0 92 97 18 3c 4f 96 ab bd cb 3b af bc 0b 33 c0 bd
       0.009313481 -0.083782785 -0.021390816 -0.09384736
0000f0 50 b4 de bc c0 6b 40 3d 6e 2c 0b 3e c3 21 69 3d
       -0.02718559 0.04697776 0.13591167 0.056916963

features.1.running_var f4 [64]
000000 24 23 6d 36 53 b1 f5 34 f7 77 46 35 d1 04 80 35
       3.5336207e-06 4.5763827e-07 7.393532e-07 9.538145e-07
000010 e5 de 4e 35 eb 46 1a 35 60 0d c7 35 7a 29 36 35
       7.7065334e-07 5.747267e-07 1.4830548e-06 6.786064e-07
000020 eb 2b 86 35 4c 55 a3 35 57 f4 0b 36 0c c1 e0 35
       9.99656e-07 1.2169271e-06 2.0854839e-06 1.6745485e-06
000030 b0 c4 5f 35 92 01 62 35 23 5a 58 36 48 2d 1f 34
       8.336019e-07 8.4193846e-07 3.2238975e-06 1.4824502e-07
000040 c1 a6 14 36 c4 22 4b 36 c2 0f ae 34 6e 4b f9 34
       2.2150782e-06 3.0269593e-06 3.242149e-07 4.6434747e-07
000050 27 a1 41 35 f4 8d 79 35 24 fd 35 35 bd b2 f2 35
       7.213261e-07 9.29663e-07 6.779612e-07 1.8082425e-06
000060 a7 69 72 34 c6 83 83 35 92 75 12 36 95 02 25 35
       2.2576442e-07 9.798612e-07 2.182413e-06 6.147105e-07
000070 aa 2a e7 36 e6 f0 15 35 c8 f3 9b 34 17 06 03 36
       6.889303e-06 5.585738e-07 2.9048374e-07 1.9524066e-06
000080 90 4d 50 35 0e 64 19 36 c3 00 c0 36 09 23 a1 34
       7.7598907e-07 2.2857016e-06 5.7221346e-06 3.0014078e-07
000090 da cb cd 35 2a 36 3f 35 5b 47 d6 34 76 43 8b 35
       1.5333019e-06 7.1231864e-07 3.9912524e-07 1.0375941e-06
0000a0 6b 05 c3 35 58 3c c7 35 b8 3f 6d 35 61 96 70 35
       1.4530209e-06 1.4844218e-06 8.8382103e-07 8.96258e-07
0000b0 e2 ac e0 35 9c 97 d0 34 4a d2 81 35 7d 38 b1 35
       1.6739616e-06 3.885333e-07 9.672451e-07 1.3203968e-06
0000c0 c5 c7 f3 35 c5 c7 2e 35 3a cf 2c 35 b6 ff 03 35
       1.8163051e-06 6.5110754e-07 6.437655e-07 4.917341e-07
0000d0 a6 82 83 35 12 1c 21 36 a6 8b 85 35 a7 68 8c 34
       9.798284e-07 2.4007209e-06 9.949915e-07 2.6153177e-07
0000e0 17 d5 d0 35 70 a1 21 35 5a ad 40 35 b5 58 54 34
       1.5559225e-06 6.0212096e-07 7.1777833e-07 1.977631e-07
0000f0 a4 55 99 35 a3 8b a7 35 a7 c1 ab 35 a0 a0 0c 36
       1.1424313e-06 1.2483109e-06 1.2796853e-06 2.0955122e-06

features.4.weight f4 [128, 64, 3]
000000 75 62 b3 3d a8 61 52 3c 8f 24 8d 3d 00 98 44 3d
       0.087590136 0.012840666 0.068917386 0.04799652
000010 92 42 20 3d 84 fb ae 3d 8c 29 34 b8 74 2d c3 3c
       0.039125986 0.085440665 -4.2954038e-05 0.023825385
000020 e0 6f 8b bb eb c7 ce 3c 71 09 d2 bd 38 41 07 bd
       -0.00425528 0.025241813 -0.10255707 -0.03302118
000030 64 80 81 bc 49 f1 9e bb 65 d8 c7 3a 80 84 ea bd
       -0.015808292 -0.004850541 0.0015246986 -0.114510536
000040 79 76 f4 bc 05 8c c5 bd 77 c2 98 bd 53 75 09 3d
       -0.029841648 -0.09645847 -0.07458966 0.033559155
000050 72 1a 18 3b 7d 7c 02 bc e4 39 a6 3d ba 89 50 bd
       0.0023209122 -0.007964251 0.081165105 -0.050912596
000060 3f fd 2e be 84 3f e8 bd a5 2d a3 bd d8 d7 d5 3d
       -0.17088793 -0.1134024 -0.079676904 0.104415596
000070 bc 38 e6 bb 19 91 35 3d ef 09 12 bd d7 ef 63 bd
       -0.0070258062 0.04432783 -0.035654005 -0.05564865
000080 0e 99 16 3d 41 d3 f3 bd 44 d5 84 bd 97 d5 8c bd
       0.036767058 -0.11905528 -0.0648599 -0.068766765
000090 89 d3 81 bd 9e 0e d5 bb 52 68 2f bd aa 8c 5c 3c
       -0.06339175 -0.0065019866 -0.042824097 0.013461271
0000a0 91 fa 91 3c 17 cb 56 ba 0c 2f de 3b 01 4f d1 3c
       0.017819675 -0.0008193715 0.006780511 0.025550367
0000b0 ff 2a b9 bc ce 87 9e 3d c3 48 0e 3e 25 4f 85 3d
       -0.02260351 0.077407464 0.13894944 0.06509236
0000c0 c1 42 a1 bc bc 93 a6 3d 18 2e 64 3a 75 37 95 3d
       -0.019685151 0.08133647 0.0008704378 0.07285968
0000d0 fb 97 95 3c 5a 96 32 bc 2e c1 96 bd d0 1f 23 bc
       0.018260946 -0.010900104 -0.07361065 -0.009956315
0000e0 76 80 44 3d 4e ac 82 bc e3 7c 7e 3d 4d d5 22 3d
       0.047974072 -0.015951302 0.06213082 0.0397542
0000f0 fc c1 16 3d 95 ff 09 3c ee 65 2a 3d e9 26 ff bc
       0.03680609 0.008422752 0.041601114 -0.031146483
000100 81 37 3e bb 74 03 28 bd c0 d4 08 bd f0 f0 b0 bd
       -0.0029024782 -0.04101892 -0.03340602 -0.08639705
000110 68 09 c3 3c 89 3f 9c 3d a3 68 59 bd fc bd 24 bd
       0.023808196 0.07629306 -0.053078305 -0.040220246
000120 03 cb 0c bd 90 ee 27 3c d2 80 38 3a 8c b0 7d 3d
       -0.034373295 0.010249749 0.00070382387 0.061935946
000130 55 0e 29 3d 1d 98 6f 3d cd 5f ab ba 73 5e a1 3b
       0.041273434 0.058494676 -0.0013074816 0.0049245893
000140 f6 d8 11 bc c7 ca 92 3c 6f 7a e4 bc 90 f0 c6 bc
       -0.008901825 0.017918957 -0.027890412 -0.024284631
000150 7c 34 f7 bc 79 b7 95 3d 04 ce 23 bd b2 12 20 3c
       -0.030176394 0.07310385 -0.039991394 0.009770082
000160 11 db eb 3c 37 11 79 3c ab a7 2c bd 31 22 02 ba
       0.028790982 0.015201858 -0.042152088 -0.00049642014
000170 f2 f2 8e 3c fe 76 16 bd a0 a6 a5 3c 69 49 03 bd
       0.01744983 -0.036734574 0.020221055 -0.03205243
000180 cd cc c9 3d f8 e5 ff 3d 57 ca 20 3e f6 80 fa ba
       0.09853516 0.12495035 0.15702187 -0.001911192
000190 b9 9e 9a 3c 89 63 36 3b 04 99 14 3d 32 23 3e bd
       0.018874513 0.0027830324 0.03627874 -0.046420284
0001a0 99 d9 a9 3d 3a b4 77 bc 93 c1 8d 3d cf 73 9e 3d
       0.082934566 -0.015118653 0.06921687 0.077369325
0001b0 35 1d c2 bb be 6b bc bc a3 e2 06 be df 18 9a 3c
       -0.005923892 -0.023000594 -0.13172393 0.018810688
0001c0 4d b6 01 3d 4e 96 77 3c ed c7 aa bc aa 2b 1e 3d
       0.031667996 0.015111519 -0.020847285 0.03861586
0001d0 85 af 07 bd c5 4b 3f 3d ba dd df 3c ae 2c 30 bd
       -0.033126373 0.04670312 0.027327407 -0.04301136
0001e0 d1 36 94 3d 54 f0 ad bc c7 9f 61 3d 5b 29 cf 3d
       0.07237018 -0.021232761 0.055084016 0.1011531
0001f0 f3 2c 90 3d eb 65 e8 3c 78 33 ad bd 1f e9 4a bd
       0.070398234 0.02836891 -0.084570825 -0.049538728
000200 26 e3 d3 bd ab 66 63 3d 8a 0e c2 3c 61 8a 15 3d
       -0.103460595 0.055517834 0.023688573 0.03650892
000210 0f 4d 8b 3d 7e be 68 bd 85 4e 81 bd 56 7a 89 3a
       0.06801807 -0.056822293 -0.063138045 0.001048873
000220 b8 8d 4f bc 28 8f 1a bd 4e 99 92 bc 2a ad 4f 3d
       -0.012668066 -0.03773418 -0.017895367 0.05070225
000230 31 40 9f 3b 44 d2 61 3d bc 78 8b 3d 22 5e 01 3d
       0.004859947 0.055132166 0.06810138 0.031583913
000240 d7 50 a5 bd 3f bd 15 be bf ad a4 bd 28 88 e6 bd
       -0.080720596 -0.14622973 -0.08040952 -0.112564385
000250 db ea 17 be b7 03 41 be 8c 12 e4 3b dd 2b b8 3c
       -0.14835684 -0.18849073 0.006960219 0.022481853
000260 c0 3a 05 3d af f8 89 bc ad 30 37 3d 98 3d 01 bd
       0.03252673 -0.016842214 0.044724155 -0.03155288
000270 70 6d 5c 3d 90 4f 13 3d 39 4a 70 3d f4 0d 9c bd
       0.053815305 0.03596455 0.058664534 -0.07619849
000280 ea d4 cc bd 8f 00 3c bc 23 ef 4c 3d 59 31 0d bd
       -0.10001548 -0.011474743 0.050032746 -0.03447089
000290 7a 78 bf 3d 22 08 4d bd 35 2c 45 bd 9c 6a a0 3c
       0.09349151 -0.050056584 -0.048137862 0.019582085
0002a0 e6 df 86 bd c4 bb 79 bc 02 c8 ff 3a e0 48 b5 3d
       -0.06585674 -0.015242521 0.0019514563 0.088517904
0002b0 88 32 1d 3c 90 83 9b 3c 94 6d 1b bc 5b 11 0f 3d
       0.009594567 0.018983632 -0.009486575 0.03492866
0002c0 e1 53 16 3d 7f 84 b1 3d 8d b4 bd 3c 90 36 87 3d
       0.036701087 0.0866785 0.023157382 0.06602204
0002d0 7b 91 b5 3c 4d 5b 07 bd 16 71 06 bd 33 fe a0 bd
       0.022164097 -0.033046056 -0.03282269 -0.07860985
0002e0 96 36 b1 bd 2e 3f b4 bd 85 f4 09 bd 4e ee 3e 3d
       -0.086529896 -0.08801113 -0.033680458 0.046613984
0002f0 cb c2 8a bb 3d bf 3d 3b cb 00 91 3b 08 b9 94 bd
       -0.004234647 0.0028953098 0.0044251434 -0.072618544
000300 83 c8 36 3d 5d aa cd 3c fa bf 05 3d 55 54 e0 bd
       0.044624817 0.02510565 0.032653786 -0.10953585
000310 64 40 eb bd 49 99 67 bc e9 f8 08 3d 87 e2 57 bd
       -0.11486891 -0.014135667 0.033440504 -0.052706268
000320 56 66 49 bd e8 5f f5 3c 05 b9 9d 3d 7d c0 35 bd
       -0.04916986 0.029952958 0.07701305 -0.044373024
000330 da 8a d4 bd 4a 3a 71 bc 87 5b 6f 3c ba 30 86 bd
       -0.10378046 -0.01472337 0.014609224 -0.065522626
000340 d1 ac 19 3d 17 99 82 bd 02 20 41 bd 81 a9 6d 3d
       0.037518326 -0.06376856 -0.047149666 0.05802298
000350 28 fa d6 bc 56 5b ea bc b4 a9 ad 3d 14 97 db bc
       -0.02624233 -0.028608005 0.08479634 -0.026805438
000360 7e 56 53 3d 58 d6 89 bd 46 cd 8e 3d d7 6f 90 3d
       0.051596157 -0.06730336 0.069727466 0.07052582
000370 8e 9e 89 3d 7b 51 27 bd c4 81 95 bd bf c2 79 bd
       0.06719695 -0.04084919 -0.073001415 -0.06097674
000380 ea 64 d3 bd 78 0c 74 bd fb 04 00 be a9 f8 8f bd
       -0.10321982 -0.059582204 -0.125019 -0.0702985
000390 e4 72 e3 bc 2e 62 97 bd 97 17 97 bd cd 13 95 bd
       -0.027764745 -0.07391773 -0.07377546 -0.07279167
0003a0 89 f9 1e 3d 13 be 23 bb ba 45 eb 3c bb 24 f1 3b
       0.038812194 -0.002498512 0.028719772 0.007359115
0003b0 de f4 19 3c a0 4b 89 bb 39 13 a8 bd 99 77 70 bd
       0.00939676 -0.0041899234 -0.082067914 -0.058707807
0003c0 52 5c 05 bd f8 6e 4d bd 28 fe 1c bd 0f 5d c5 bc
       -0.032558747 -0.050154656 -0.03832832 -0.024092225
0003d0 2c f8 87 bc 29 e6 b0 3d 89 81 77 bd 62 3a 92 3d
       -0.01659783 0.086376496 -0.06042627 0.07140042
0003e0 a7 16 92 bc 7a 64 03 be a6 80 ba bd aa f1 0d bc
       -0.017833067 -0.12831298 -0.09106569 -0.008663574
0003f0 41 0c 34 3c 1a 70 f1 bc 00 78 bf 3c 4f 7e ec bc
       0.01098925 -0.0294724 0.02337265 -0.028868822

features.4.bias f4 [128]
000000 a7 e1 e1 3c 8b ec bb bb 60 6e f4 3c 6e d0 87 3d
       0.02757342 -0.005734985 0.029837787 0.06631552
000010 28 2f 85 3d b1 69 3d 3d 24 5b 45 3c dd 95 43 bd
       0.06503135 0.046243373 0.012045655 -0.047750343
000020 33 de a1 3c 7e 3b 1f 3d 40 4d ac 3d 56 98 72 3d
       0.019759273 0.038875096 0.08413172 0.05922731
000030 58 66 af bc 89 5f 47 b9 fa 4d 75 bb 0c 6a 2e 3c
       -0.021411106 -0.00019013709 -0.003743051 0.010645401
000040 44 f2 fa bc 99 96 6c 3c 55 01 df bc 55 a6 94 3d
       -0.0306331 0.014440202 -0.027222315 0.07258288
000050 20 38 b1 bc 34 00 76 3c 7a 0e 15 3c 21 66 ff 3c
       -0.021633208 0.015014697 0.00909769 0.031176629
000060 27 94 68 3d f3 a8 36 3d 89 28 ce 3c 3d 34 35 bd
       0.056781914 0.044594716 0.025165813 -0.04423927
000070 ae 34 0b bd 7b 2a 91 3d 07 10 28 bd 87 3c 9c bc
       -0.033985786 0.07088181 -0.04103091 -0.01907183
000080 cd ad 82 bd 64 56 bf 3c 14 f9 fa bc 6f 72 8a bb
       -0.06380806 0.023356624 -0.030636348 -0.0042250673
000090 b4 0f 05 bd a2 8b 91 bc 00 d2 3f bd 68 1a c9 bc
       -0.03248568 -0.017766777 -0.04683113 -0.024548724
0000a0 98 66 ea bb 1c 9e 9f bd 29 90 11 bd 02 78 84 3d
       -0.0071533434 -0.07793829 -0.035537872 0.06468202
0000b0 10 16 f7 bb 1a 58 09 bd 1e 01 42 3d 56 4f 6e bd
       -0.007540472 -0.033531286 0.047364347 -0.05818113
0000c0 34 8b 55 3d fc 38 38 bd 95 3c e2 3c cd 6f b7 bc
       0.052134708 -0.04497622 0.027616778 -0.022392178
0000d0 9f f5 e9 3c ec 72 24 3d c2 4b ac 3c cc d9 11 3d
       0.028559504 0.04014866 0.021032218 0.035608098
0000e0 d6 c6 7e 3d 5b c6 02 bd 0e 47 6c bd 20 e7 e0 3c
       0.062201343 -0.031927448 -0.05768495 0.027453959
0000f0 93 cb cb bc 99 c9 69 bd 15 42 1a bd b5 84 96 3b
       -0.024877345 -0.057077024 -0.037660677 0.0045934566
000100 9b a1 42 bd 41 e0 05 bd c7 cf 74 3b ef 98 8d bc
       -0.0475174 -0.03268457 0.003735529 -0.017284838
000110 e5 2c 5f 3d cd 69 21 bb b2 2a 25 3c 76 70 42 bd
       0.054486174 -0.0024629713 0.01008098 -0.047470532
000120 b7 f4 a4 3c ca 59 1b bd a0 87 9e 3c df 54 8e 3c
       0.02013622 -0.037927426 0.01935178 0.017374454
000130 7f 2b 88 bd 5e bf 89 3d 9f d9 82 bd db c2 8f 3b
       -0.06648921 0.067259535 -0.06389164 0.0043872423
000140 67 cb 74 bd 66 85 56 3d 97 26 57 3d 9d 44 14 3d
       -0.059764292 0.052373312 0.052527037 0.036198247
000150 9c 05 0c 3d 5a 2d 59 3c e8 20 2c bc fb 3f 69 3d
       0.034185037 0.013255442 -0.010505892 0.056945782
000160 70 8b 8b bd c9 4a 6b 3d 48 b2 35 3d e4 d5 cd bc
       -0.06813705 0.057444368 0.044359475 -0.025126405
000170 52 cb cd 3c ed e1 f6 3c b6 0b 3f bd 8c 84 a6 3c
       0.025121365 0.030137027 -0.046642028 0.020326875
000180 24 1f 87 3c 7c c5 8b 3d 78 6b 18 3d f6 8c 58 bd
       0.016494341 0.068247765 0.037211865 -0.052868806
000190 ba 02 8b bc ca 64 4d bb fe 0c 1d 3d 9a 13 1a 3d
       -0.016969074 -0.0031340593 0.03834247 0.03761635
0001a0 7c 46 54 bd 9d 93 0c 3c 25 df ea 3c 4b 77 cf bc
       -0.05182503 0.008580116 0.028670857 -0.025325438
0001b0 32 99 2e 3d 59 7e 19 3d 3b 08 6f bd d3 01 a6 3b
       0.042626567 0.03747401 -0.05835746 0.0050661354
0001c0 20 ee bc 39 32 1c f1 3c 4f 1b 32 bd 01 12 8e bd
       0.0003603557 0.02943239 -0.043483075 -0.06937028
0001d0 54 ff 62 3d 09 53 cc 3c 3a 57 5d bd 98 2e d7 bc
       0.05541928 0.024941938 -0.054038264 -0.026267335
0001e0 b1 7a 9b bc 93 4d 96 3b 00 2f 0c 3d c1 02 67 bd
       -0.018979402 0.0045868843 0.03422451 -0.05639911
0001f0 a2 8c 31 3d 2a c3 7a 3d 90 b5 18 3d 52 0c f5 ba
       0.04334701 0.06122128 0.037282526 -0.0018695688

features.5.weight f4 [128]
000000 44 e3 78 3f 82 9e 83 3f ed f3 7f 3f 6a 47 6c 3f
       0.9722178 1.0282748 0.99981576 0.9229647
000010 e9 cc 6b 3f 07 22 64 3f e5 50 85 3f 8c 60 78 3f
       0.92109543 0.8911442 1.0415312 0.9702232
000020 c8 f4 87 3f 04 a4 6d 3f 0f ca 78 3f 17 bd 85 3f
       1.0621576 0.92828393 0.97183317 1.0448331
000030 ff b9 80 3f 56 e8 81 3f 5a f4 87 3f 9a 53 72 3f
       1.0056762 1.0149028 1.0621445 0.94658816
000040 f3 15 80 3f 9b 7f 72 3f 6d a3 7b 3f 7d 80 64 3f
       1.0006698 0.9472596 0.9829624 0.8925856
000050 9a 87 89 3f 75 e7 82 3f 3d 16 83 3f c4 d0 70 3f
       1.0744507 1.0226885 1.0241162 0.9406855
000060 e9 c0 78 3f f7 26 73 3f f7 10 86 3f ee c9 86 3f
       0.9716936 0.9498133 1.0473927 1.0530374
000070 1b 5d 81 3f 4e 20 85 3f 77 4d 76 3f fe 00 82 3f
       1.0106539 1.0400484 0.9621195 1.0156553
000080 dc a1 82 3f 1d 00 62 3f 87 e1 89 3f 3d ab 80 3f
       1.0205646 0.8828142 1.077195 1.0052258
000090 90 a7 76 3f 5f 87 80 3f a9 82 87 3f 8c bf 7b 3f
       0.9634943 1.0041312 1.0586749 0.9833915
0000a0 37 c1 66 3f 0f 55 86 3f d5 f6 83 3f 3a 4f 7d 3f
       0.9013857 1.0494708 1.0309702 0.98949015
0000b0 b9 52 6f 3f 69 8d 74 3f 86 53 79 3f 4a 01 6e 3f
       0.934856 0.95528275 0.9739307 0.92970717
0000c0 e8 66 80 3f 7f 78 71 3f da f7 7b 3f f1 47 7e 3f
       1.0031404 0.9432449 0.98425066 0.99328524
0000d0 43 80 7d 3f 0f 64 7e 3f 25 1b 82 3f 2d 62 7a 3f
       0.99023837 0.9937143 1.0164534 0.97806054
0000e0 6d e2 80 3f 64 df 83 3f 29 9a 7b 3f eb 1d 7f 3f
       1.00691 1.0302548 0.98282105 0.99655026
0000f0 d8 34 83 3f f9 5f 71 3f 6e 4d 69 3f f7 67 79 3f
       1.0250502 0.9428707 0.91133773 0.9742426
000100 87 53 61 3f 8c 60 79 3f 83 78 76 3f fa 63 76 3f
       0.8801808 0.97412944 0.96277636 0.962463
000110 f5 fc 81 3f 74 70 75 3f ee 4f 62 3f d2 75 6f 3f
       1.0155321 0.95874715 0.88403213 0.93539155
000120 37 45 80 3f d2 cd 70 3f 2b 72 75 3f 3c a9 82 3f
       1.0021123 0.94064057 0.9587733 1.0207896
000130 cf f9 6f 3f 3a 3f 73 3f e5 ea 8a 3f 99 c5 7e 3f
       0.9374055 0.9501835 1.0852934 0.9952026
000140 a9 d1 7d 3f 9b 49 6a 3f aa bc 7a 3f af fa 6b 3f
       0.9914804 0.91518563 0.9794413 0.9217939
000150 60 2a 83 3f dd a5 81 3f 8a 98 79 3f ee 91 79 3f
       1.0247307 1.0128742 0.9749838 0.97488296
000160 2d 20 77 3f 2b 99 81 3f 57 fb 78 3f c6 03 72 3f
       0.9653347 1.0124868 0.97258514 0.9453701
000170 25 28 82 3f 67 6f 75 3f 7c 8f 74 3f d0 d7 6e 3f
       1.0168501 0.9587311 0.9553144 0.93298054
000180 a5 75 68 3f 43 28 81 3f 54 82 84 3f 5f de 7b 3f
       0.9080451 1.0090412 1.0352273 0.98386186
000190 b0 75 74 3f 10 5e 83 3f 90 ac 6d 3f 7a 89 81 3f
       0.95492077 1.0263081 0.92841434 1.012008
0001a0 e5 e6 6f 3f e3 ba 84 3f ab 24 85 3f bc b0 7a 3f
       0.9371169 1.0369533 1.0401815 0.97925925
0001b0 b1 97 76 3f 8f 72 7f 3f e9 09 83 3f 9f 88 67 3f
       0.9632521 0.9978418 1.0237399 0.9044284
0001c0 2d bb 6f 3f 7b 89 7e 3f 81 ac 73 3f c9 36 83 3f
       0.9364498 0.9942853 0.95185095 1.0251094
0001d0 77 0c 84 3f 65 ee 80 3f 88 63 74 3f b4 f8 86 3f
       1.0316304 1.0072752 0.9546437 1.0544648
0001e0 b5 83 80 3f 06 97 65 3f 4b e0 76 3f 1c f0 6e 3f
       1.0040194 0.8968357 0.96435994 0.9333513
0001f0 ea 12 83 3f 34 6f 81 3f 88 86 80 3f f8 05 62 3f
       1.0240147 1.0112062 1.0041056 0.8829036

features.5.bias f4 [128]
000000 63 f5 1b be e7 8c b9 bd 7f ac a0 bd be 92 27 be
       -0.15230326 -0.09060078 -0.07845401 -0.16364571
000010 fa 62 0d be e2 11 17 be 8d ae 44 3d af c3 05 be
       -0.13807288 -0.14752916 0.048018027 -0.13062929
000020 09 50 35 be 3e 5e 00 be 93 33 c0 bd 7f f9 87 bd
       -0.17706312 -0.1253595 -0.09384837 -0.066393845
000030 9c be 31 bc 9c ed ae bd 51 31 51 bd bb ec b1 bd
       -0.0108486675 -0.08541414 -0.051072422 -0.08687731
000040 2f 1d b1 bd b1 33 ef bc 0d e9 b9 bd ea 12 2f be
       -0.086481445 -0.029199453 -0.09077654 -0.17097059
000050 1e b8 e3 bd b1 0b 13 be 20 a1 7c bd 90 cc 21 be
       -0.11119102 -0.14359929 -0.0616771 -0.1580069
000060 cb 8a e4 bd fe fb 02 be 03 36 3d bd d7 d7 f9 3c
       -0.11159285 -0.1279144 -0.046194088 0.030498428
000070 04 8f e8 bd 3d 75 e2 bc f2 af 64 bc a5 0b ea bd
       -0.11355403 -0.027643794 -0.013957964 -0.11428002
000080 7c c3 7b bc e4 8f 26 be 6e 10 2f bd fc 3f b2 bd
       -0.015366431 -0.16265827 -0.042740278 -0.0870361
000090 91 99 c7 bd 3e 57 d3 bd 0d 70 6d bd 7e 4d c2 bd
       -0.09746087 -0.103193745 -0.057968188 -0.09487437
0000a0 25 11 03 be fc fe 7f bd 17 d9 0e be cc 5d 0b be
       -0.12799509 -0.06249903 -0.1395 -0.1361
0000b0 85 c5 a9 bd 68 74 da bd 0f 4c e2 bd fb dc aa bd
       -0.08289627 -0.10666734 -0.11049663 -0.0834293
0000c0 62 52 da bd 2b ed e7 bd 6e dd 95 bd 0d 94 08 be
       -0.106602445 -0.11324533 -0.07317625 -0.13337727
0000d0 b0 0e a3 bd bb a6 0c be 6b 18 bb bd 00 42 f1 bc
       -0.07961786 -0.13735478 -0.09135517 -0.029450417
0000e0 15 fa 54 bd c0 35 8a bd 79 16 64 bb 9c a6 10 be
       -0.05199631 -0.06748533 -0.0034803434 -0.14126056
0000f0 00 94 31 bd fd fe ee bd a3 e2 cb bd 21 36 9f bd
       -0.043354034 -0.11669729 -0.09955337 -0.07773996
000100 eb 5b 07 be 53 72 28 be ba 9d dc bd 8a 46 cc bd
       -0.13218658 -0.16449861 -0.107722715 -0.09974392
000110 85 26 80 bd d9 de c0 bd 32 c2 c2 bd 3f 60 b6 bd
       -0.06257347 -0.09417505 -0.09509696 -0.08905076
000120 95 8a 45 bd bc 8c e9 bd 7d ed 43 bd fd 83 97 bb
       -0.048227865 -0.11403796 -0.04783391 -0.0046238885
000130 a0 c1 f8 bd e1 7d c9 bd 04 d8 47 bc 75 31 ff bd
       -0.12146306 -0.098384626 -0.012197498 -0.12460605
000140 9e 15 cc bd cf 38 00 be 13 78 1e bd 66 bb bf bd
       -0.09965061 -0.12521671 -0.03868873 -0.09361915
000150 35 9f 9a bd fe 16 dc bd e9 23 76 bd fa 80 bb bd
       -0.075498976 -0.10746573 -0.06009284 -0.0915546
000160 b5 64 9a bd 96 18 ea bd d5 0c ff bd 4c e8 c4 bd
       -0.075387396 -0.11430471 -0.124536194 -0.096146196
000170 29 73 bb bd 23 48 ed bd 1a 0e 2b bd de c0 a7 bd
       -0.091528244 -0.115860246 -0.041761495 -0.08191083
000180 fe d2 10 be f3 49 bc bd 51 8d 32 be 1e b5 97 bd
       -0.14142987 -0.09193792 -0.1743672 -0.07407592
000190 2b 98 c5 bd 23 dd a5 bb 84 99 67 bd 5a 52 8a bd
       -0.09648164 -0.005061762 -0.05654289 -0.067539886
0001a0 41 c1 3b be 29 d1 7c bd 52 eb db 3d 54 19 64 bd
       -0.1833544 -0.06172291 0.10738243 -0.055688217
0001b0 c6 4e cc bc 58 77 b2 bd 53 c9 03 be af 49 0f be
       -0.024939906 -0.08714169 -0.12869768 -0.13992952
0001c0 cb 5a 5c 3c bd 49 79 bd 0c df c7 bd c0 04 34 3d
       0.013449381 -0.060861338 -0.0975934 0.043949842
0001d0 11 20 27 bd 58 95 c1 bd cd 0d 1e bd d3 7a a1 bc
       -0.040802065 -0.09452313 -0.03858738 -0.019711887
0001e0 26 31 88 bd d6 a5 28 be 82 0a 08 be e0 49 ae bd
       -0.06649999 -0.16469511 -0.13285258 -0.08510184
0001f0 9c 64 32 3b 80 e9 10 be 6e 1b ec bd 19 2b 46 be
       0.0027220612 -0.14151573 -0.11528669 -0.19352378

features.5.running_mean f4 [128]
000000 c3 04 b4 3b e5 a8 82 be 9f bc 2f be bf 79 1a be
       0.0054937317 -0.2551948 -0.17161797 -0.15085505
000010 1b b3 ad bd 7e 71 32 be dc 18 60 be 6e a2 b3 be
       -0.08481427 -0.17426106 -0.21884483 -0.35084862
000020 19 18 c8 bc 63 14 ba bd e0 6b 0a 3e b8 38 cd be
       -0.024425553 -0.0908592 0.13517714 -0.40082335
000030 fe 7a ec bd 71 66 b8 be f9 a0 4e bd 24 f9 5c bd
       -0.115468964 -0.36015657 -0.050446484 -0.053948537
000040 41 3b 4b be 18 aa 10 be 5d 74 d5 3d cc c3 89 be
       -0.19846822 -0.14127386 0.10422585 -0.26907194
000050 35 bc 18 be b8 52 9b be ca 80 92 be 29 9a 5f 3d
       -0.14915545 -0.30336547 -0.28613883 0.054590378
000060 f6 1a e9 3e b7 e5 5c be 88 96 a1 be bd 9e c3 be
       0.45528382 -0.21572004 -0.3156016 -0.38207045
000070 ab 51 a4 bd d9 76 81 be 15 ad a1 be ed db ca bd
       -0.080233894 -0.25285986 -0.31577364 -0.09905229
000080 70 9f 23 be 69 d9 d0 be b5 7c f8 be f1 dc 85 be
       -0.1597879 -0.4079087 -0.48532644 -0.26145127
000090 38 f9 ef 3d ed 7a d3 be 7d b7 73 be 65 2c dc bc
       0.117174566 -0.41304722 -0.23800464 -0.026876638
0000a0 6b 46 08 be 8c ad ea bd 41 ea c1 be 5f 01 ca 3b
       -0.13308112 -0.11458883 -0.37874034 0.006164714
0000b0 1f 41 7a be c5 32 57 be e7 e4 1b bd 4e 6a 4a be
       -0.24438904 -0.21015461 -0.038060095 -0.19767115
0000c0 89 72 2c 3c 7a 8a f0 be 86 62 a1 bd f3 50 5a bd
       0.010525354 -0.4698065 -0.0788012 -0.053299855
0000d0 6a 63 57 be e3 d2 d9 bc 54 35 30 be 30 57 a0 be
       -0.21034017 -0.026589816 -0.17207843 -0.3131652
0000e0 bd fa b0 be 18 f9 7e be 72 13 eb be e7 a4 ed bd
       -0.34566298 -0.24899709 -0.45913273 -0.11603718
0000f0 d4 7f 14 be fb ea c3 be 97 4f 9b be b9 65 b8 bc
       -0.14501888 -0.38265213 -0.3033416 -0.022509443
000100 6b 57 a1 be c1 62 58 bc 66 7e 10 be 5a fe 8b be
       -0.31512007 -0.0132071385 -0.14110717 -0.27342492
000110 0e e8 49 be fb ce 66 3e c3 38 22 be 7f 29 4e be
       -0.19717428 0.22539894 -0.15841965 -0.20133017
000120 f4 57 5d 3e 61 70 49 be 4a 19 a0 bd a1 d6 00 be
       0.21615583 -0.19671775 -0.078173235 -0.12581874
000130 51 0d 9b be 7d 22 88 be bc 0c 02 bf 1e e6 b9 be
       -0.30283597 -0.26588812 -0.5080068 -0.36308378
000140 cd 5a 0d be 7d e4 c4 3b 59 f8 8e bd df de 12 be
       -0.13804169 0.0060086832 -0.06980962 -0.14342831
000150 9e 5b 6d 3e 4b 8b 9b be 73 70 0b bf bc 2b 26 3e
       0.2317948 -0.3037971 -0.5446846 0.16227621
000160 ce 33 d7 be 21 17 83 bd 3e ca 1f be d4 b8 46 be
       -0.4203171 -0.06400896 -0.15604493 -0.19406444
000170 de e9 81 be a6 0f 86 be eb 5a b5 be 1e 93 bf be
       -0.2537374 -0.26183814 -0.35420927 -0.3741693
000180 34 4a ad 3e 45 35 bb be de 7c c8 3e 61 b3 c3 be
       0.33845675 -0.3656408 0.39157766 -0.38222793
000190 2d da cc be 02 38 e6 be e9 1a 89 bd ab a4 5c be
       -0.40010205 -0.44964606 -0.06694586 -0.21547191
0001a0 f5 89 ea 3c 90 4d 87 be 46 af 9a be 62 c8 2f be
       0.028630236 -0.26426363 -0.30211848 -0.17166284
0001b0 93 e7 91 be 6d cf 82 be 6c 06 0f be 80 64 8f be
       -0.2849699 -0.25548878 -0.13967294 -0.28006363
0001c0 ac ab 1a be 5e ae f9 3c 94 d3 b0 be ce 7d f5 be
       -0.1510455 0.030478653 -0.3453642 -0.47947544
0001d0 3e 40 d2 be 4c 91 e2 be f0 b8 68 3e 71 19 e8 be
       -0.41064638 -0.44251478 0.22726798 -0.4533191
0001e0 b7 b2 21 bd 5c c6 03 be 60 85 af bd e8 88 ae be
       -0.039477076 -0.12868637 -0.08570361 -0.34088826
0001f0 2e 80 ae be cd 08 8e 3d 8e 5b ad 3e f4 26 19 be
       -0.34082168 0.06935272 0.33858913 -0.14956266

features.5.running_var f4 [128]
000000 6b df d2 3c 96 68 81 3d 14 59 58 3d 17 95 37 3d
       0.0257413 0.06318776 0.052819327 0.044819918
000010 9f 0c 6c 3d 8c 0d 88 3d df b2 0d 3d 2b 3f 5f 3d
       0.057629224 0.06643209 0.034594413 0.0545036
000020 38 c7 34 3d 72 57 17 3d cb fc d0 3c 92 09 a5 3d
       0.044135302 0.03694863 0.025511166 0.08058466
000030 ae 87 88 3d d4 ce 66 3d 92 84 4b 3d 71 71 53 3d
       0.06666504 0.05634959 0.049686976 0.051621858
000040 9f 96 45 3d 94 ba 87 3d 33 18 6d 3d 9b 5c 10 3e
       0.048239347 0.06627384 0.057884406 0.14097826
000050 89 ba 6a 3d 24 50 7f 3d 48 5a 65 3d be f9 33 3d
       0.0573068 0.062332287 0.055994302 0.043939345
000060 80 ce 9c 3d 99 6d 59 3d 9e 3f 69 3d d9 85 67 3d
       0.07656574 0.053083036 0.056945436 0.05652413
000070 15 1f 29 3d 89 e0 77 3d a4 dd 42 3d 41 4c 41 3d
       0.041289408 0.060516868 0.047574654 0.047191862
000080 9c 7c c7 3d da 0e f0 3d 9e 46 c8 3d a2 4f 87 3d
       0.09740564 0.11721583 0.09779094 0.06606986
000090 3c 2c 8a 3d b4 c3 8f 3d c1 a5 f7 3c b7 01 a7 3d
       0.06746718 0.07019749 0.030230405 0.08154624
0000a0 4a 01 29 3d 80 a8 2e 3d 32 a0 92 3d 3d 47 96 3d
       0.041260995 0.042641163 0.07159461 0.073378064
0000b0 d4 38 b2 3d 52 bf 33 3d e1 0b 7f 3d 44 e8 1a 3d
       0.08702245 0.04388363 0.062267188 0.037819162
0000c0 60 9c 07 3d de 7c ba 3d 91 49 d3 3d 07 34 0f 3d
       0.033108115 0.09105848 0.10316766 0.034961727
0000d0 fb 93 ca 3d e8 53 f3 3c 10 b4 49 3d 57 f4 3f 3d
       0.09891506 0.029703096 0.049243987 0.04686388
0000e0 3a 63 96 3d 62 c1 8b 3d 3c be b2 3d 61 49 13 3d
       0.07343145 0.06823994 0.087276906 0.03595865
0000f0 81 5d 81 3d 13 f7 96 3d a6 8d 9e 3d c6 34 45 3d
       0.063166626 0.073713444 0.07741861 0.04814603
000100 c1 c9 94 3d 80 74 df 3c df cf 3e 3d ad e9 96 3d
       0.07265044 0.027277231 0.04658496 0.07368789
000110 4b b2 21 3d 1c 6a 56 3d aa f9 b5 3d 02 d8 0e 3e
       0.039476674 0.052347288 0.0888551 0.13949588
000120 7d ae 70 3d 23 61 11 3e 6d 3c 39 3d 8e f9 6e 3d
       0.058760155 0.14197211 0.045223642 0.058343463
000130 09 d3 f4 3d 8f 4d f7 3d 1e 53 98 3d 95 f7 e5 3d
       0.11954314 0.1207534 0.07437728 0.11228863
000140 f1 5c 09 3e e9 e2 9d 3d 6b dc a0 3d 8d 0a 1a 3e
       0.1341436 0.07709295 0.078545414 0.15043087
000150 2e db f5 3c 20 e5 b7 3c 64 23 e0 3d 41 9f 56 3d
       0.03001174 0.022448123 0.1094425 0.05239797
000160 4c 88 7a 3d 08 39 bd 3c 55 83 91 3d cf 87 3a 3d
       0.06116514 0.023098484 0.07105128 0.045539673
000170 5c 83 43 3d 7c be 93 3d 71 dc e2 3d f6 a7 ed 3d
       0.047732696 0.072140664 0.11077202 0.11604302
000180 71 2a 33 3d 01 2d c4 3d f3 cd 6d 3d d4 6a 90 3d
       0.043741647 0.09578896 0.058057737 0.07051626
000190 bb 61 d1 3d 7f 51 22 3e eb 4a 57 3d 0b 65 41 3d
       0.10223719 0.15851401 0.05256168 0.047215503
0001a0 18 53 3f 3d 83 4c 79 3d 97 e0 96 3d 36 07 83 3d
       0.046710104 0.060863983 0.07367056 0.0639786
0001b0 61 00 35 3d 12 ae d6 3d 9d e1 1e 3d 26 4c af 3d
       0.044189814 0.1048242 0.03878938 0.08559446
0001c0 41 0f 53 3d 50 a5 63 3d c4 d0 c3 3d 9a 2f b8 3d
       0.05152822 0.055577576 0.09561303 0.08993454
0001d0 54 67 bb 3d df d6 1a 3e ba 72 a1 3d dd dc dd 3d
       0.09150568 0.1512103 0.078832105 0.10833142
0001e0 4e 37 5c 3d 67 41 6b 3d 06 5e e6 3c ba 93 d3 3d
       0.05376368 0.05743542 0.028121006 0.10330911
0001f0 aa 1c 88 3d ce 3e 04 3d fd 38 37 3d f9 ec 3b 3d
       0.06646092 0.032286458 0.044732083 0.04588029

features.8.weight f4 [256, 128, 3]
000000 71 f5 a1 3c 2b 5b c3 3c a4 8f 88 b9 a0 dd d4 3d
       0.019770356 0.023847183 -0.00026046962 0.10393834
000010 b3 a2 b7 3d 0c 3e 00 3d 36 2f 49 bd f2 da 73 3c
       0.08966579 0.031309173 -0.04911729 0.014883744
000020 5a 06 7c 3b dc 6c 7e bd 92 99 5e bd 8e 6e 28 bd
       0.0038455934 -0.062115535 -0.054345675 -0.04112106
000030 cf 45 e3 3c e4 59 85 3c d1 e5 03 bd e0 d1 bd 3c
       0.027743248 0.016278215 -0.032201592 0.023171365
000040 08 9b 14 bd 27 aa 6f bc e9 17 c5 bc 52 a7 77 bd
       -0.03628066 -0.01462797 -0.024059253 -0.060462303
000050 90 6a a5 bd 02 ae 93 bd 67 53 a6 bc f6 de 1f bd
       -0.08076966 -0.07210924 -0.020303441 -0.03903099
000060 46 bd 71 bc aa 02 78 bd a3 04 01 bd 20 15 93 3c
       -0.014754599 -0.060549416 -0.031498563 0.01795441
000070 77 43 f4 3c c7 54 81 3a 26 ec 7f 3c 73 88 95 3c
       0.029817326 0.0009867185 0.015620267 0.01825354
000080 81 08 70 3c 24 01 0e 3d fa ad 05 bc 2c c8 08 3d
       0.014650465 0.034669057 -0.008159155 0.033394024
000090 d6 c2 fb 3b f6 5b 51 bc 4f fb da bc 7d 29 0c bd
       0.0076831384 -0.012778273 -0.026731161 -0.034219254
0000a0 72 6a bf bd 75 51 43 bc 0e bd 9f 3d 20 8b 99 3b
       -0.09346475 -0.011921276 0.07799731 0.0046857744
0000b0 5d bf 2f 3c db 2f 6f 3d a1 69 4a 3d 2f da 58 3d
       0.010726777 0.058395248 0.04941714 0.05294245
0000c0 b8 12 6c bc 48 2f 71 3d 6c 37 03 bc a1 5b 25 3d
       -0.01440876 0.05888298 -0.008008819 0.040370587
0000d0 4a 40 f2 3c 5d 99 fa 3c c8 8f 1f 3b 24 1a 0d bd
       0.029571671 0.030590707 0.0024347175 -0.034448758
0000e0 8d 64 b2 bc 34 ab ff 3c 27 ed b9 bc 31 78 7b bc
       -0.021776462 0.031209566 -0.02269609 -0.01534848
0000f0 14 3a 25 3a 21 dc 49 3d 23 12 9d bc 61 17 cb 3c
       0.0006302905 0.049282197 -0.019173687 0.024791421
000100 4d 6e 8f 3d d0 87 3b 3b 91 77 8c bd ef 42 8b bd
       0.0700346 0.0028614886 -0.06858743 -0.06799876
000110 f1 1f 79 bd 59 4e db 3c a0 25 55 bd 54 7d 54 bd
       -0.060821477 0.026770758 -0.052037835 -0.051877335
000120 b1 e1 ca 3b 75 47 7a bd c1 ab 99 bb 0e c5 2c bd
       0.0061914553 -0.061103303 -0.004689664 -0.042180113
000130 c3 49 55 bd 88 2c 62 bd e2 74 5b bd 91 9d 79 bb
       -0.052072298 -0.05521825 -0.053578265 -0.0038088302
000140 06 44 1e bd 3c 55 73 3d 08 6b 6e 3c d6 62 1e 3a
       -0.03863909 0.059407458 0.014551885 0.00060419494
000150 ab 7a 82 bc b2 5c 1d bd 22 02 9f 3c a4 45 35 bb
       -0.015927633 -0.03841848 0.019410197 -0.0027659917
000160 df 9f 7d 3c f1 63 02 3d 48 47 08 bc 9b 10 1f bc
       0.015480011 0.031833593 -0.008317776 -0.009708549
000170 04 d2 a4 bc 43 03 f1 bc 71 e6 e8 3c 91 47 e6 ba
       -0.020119675 -0.0294205 0.028430196 -0.0017568936
000180 5e 95 d9 3c 61 bf a3 3c 8a 74 d9 ba 0c 05 2d 3d
       0.026560482 0.019988718 -0.0016590517 0.04224114
000190 17 e0 70 3c 65 20 02 bd d3 e5 8c 3d ce 90 1d 3d
       0.014701865 -0.031769175 0.06879773 0.038468175
0001a0 73 94 45 3d d0 bb 06 bd 52 e6 21 bd 4a 60 9f bd
       0.048237275 -0.032893956 -0.03952629 -0.077820376
0001b0 2a 24 9a 3c d0 f0 48 bc 73 d9 f8 3b 43 47 a0 3d
       0.018816072 -0.012264445 0.0075942813 0.07826092
0001c0 9c bc 88 3d 8e 3d 34 3d a3 17 07 bc c6 59 bb 3c
       0.066765994 0.044004016 -0.0082453815 0.022869956
0001d0 11 95 a3 3d 83 8d 8f 3c 92 c4 84 bc 33 1e 97 bb
       0.079874165 0.017523533 -0.016207013 -0.0046117543
0001e0 fb 4d 79 bd 02 ad 0d bd b9 a4 91 bc 8e f1 33 bd
       -0.060865384 -0.03458882 -0.017778741 -0.043931536
0001f0 03 a1 a3 bd e0 ff 97 bc 5f 89 97 3d 68 8d c3 3d
       -0.07989695 -0.018554628 0.07399248 0.095484555
000200 5c bf 55 3c f4 c6 18 bd d7 8d 97 3c 5f 15 32 bd
       0.013046112 -0.03729911 0.018500252 -0.043477412
000210 8e e2 80 3c d0 96 19 3b d4 68 ac 3a 80 c9 96 3d
       0.01573303 0.0023435839 0.00131538 0.07362652
000220 9b 12 b4 3c f9 26 86 3d ad 07 ed 3c 1d 6f 80 bc
       0.021981528 0.06550402 0.028934324 -0.015677983
000230 58 1b 1d 3c e9 c3 ae 3c 1a 5a 4a bc 84 25 0a bb
       0.009589039 0.021333652 -0.012350583 -0.002107949
000240 05 1a 6f bd da 94 17 3d a2 85 ac 3b 24 50 63 3d
       -0.058374424 0.03700719 0.0052649537 0.05549635
000250 46 cf a3 3c 20 d0 8d bc 4c 41 7a bc 88 1d 62 3d
       0.019996297 -0.017311156 -0.015274357 0.055203944
000260 a4 e8 20 3b 7a b4 22 3d 23 3b ca 3d c0 15 68 3c
       0.0024552727 0.039722897 0.09874561 0.014165342
000270 b2 73 ba 3d 39 ea 91 3d a3 d7 85 3c 2e 6a ee 3c
       0.091040984 0.071247526 0.016338175 0.029103365
000280 25 cd 61 3c 55 9e 99 bb a1 db c6 3b 16 28 70 3d
       0.01378182 -0.004688064 0.0060686623 0.05863198
000290 79 cc e5 3b 53 10 80 bb 6a b9 75 ba 33 85 ab bd
       0.0070129004 -0.003908196 -0.0009373637 -0.08375015
0002a0 f0 51 43 3c 2f 5e 2a 3c 33 55 41 3d 9c 6b 5f 3d
       0.011921391 0.010398432 0.047200393 0.054545984
0002b0 6f 34 39 bb 13 53 91 bc e7 4b 8c 3d 46 c5 98 3d
       -0.0028260013 -0.017739808 0.06850415 0.07459502
0002c0 e5 c9 7f 3d f7 fd 32 bc a6 da d5 bc c8 ca b2 bc
       0.0624484 -0.010924808 -0.026105236 -0.02182521
0002d0 93 7f 68 37 aa 0e 07 3d 52 b1 97 3d 19 76 00 3a
       1.3857981e-05 0.03297297 0.07406868 0.00049004104
0002e0 33 27 01 bd 46 f5 fb 3b 7b a6 45 3c e6 4b f0 3c
       -0.031531524 0.007689151 0.012063618 0.029333066
0002f0 c9 c3 07 bc 2d 38 42 bd f8 4b 78 3c da d8 bb bc
       -0.008286425 -0.047416855 0.015154831 -0.022930551
000300 a3 30 1e 3d ca 9a 5f bd 80 f0 87 3c 3d 05 6e bb
       0.038620602 -0.054590978 0.016594172 -0.003631904
000310 a7 bb 6c bd 4d dc 46 bd bc 22 b1 bc d0 6c a3 b9
       -0.057796147 -0.04854994 -0.021623008 -0.00031170854
000320 77 50 19 bd 9e ee f0 bb 9e 67 1c bd 40 6c 9b 3c
       -0.037430253 -0.007352664 -0.038184755 0.018972516
000330 39 09 11 bd 22 7c 23 3b b9 f9 ae bc 51 1d ae bc
       -0.035409186 0.0024945815 -0.021359311 -0.021254214
000340 2e 9f 52 bd cd 79 1b bd 0e 0d f7 bc 8a 76 22 3a
       -0.051421337 -0.037957955 -0.030157592 0.0006197473
000350 78 09 15 3c 91 49 63 3c 56 91 8b bc e2 3a eb 3c
       0.009096496 0.01387252 -0.017037075 0.028714601
000360 d4 31 2e 3d bf 6d 7b 3d be 04 e7 3c b4 30 d7 bc
       0.04252799 0.06138396 0.028200503 -0.02626834
000370 06 59 7a bd 7c 54 e8 3c 8a 2d ea bc 57 f9 ef 3c
       -0.061120056 0.028360598 -0.028586168 0.0292937
000380 7b 71 03 3b d5 cc 4e bd 5c 1e 04 3c 5f 35 25 bb
       0.0020056653 -0.05048831 0.008063879 -0.0025208814
000390 38 f1 90 bd d3 b5 80 bc 28 34 af bd 27 27 b1 bd
       -0.07077259 -0.0157117 -0.0855487 -0.08650046
0003a0 3d 60 b8 bc 0b 50 b9 bc 1a 31 9a 3d 0d 1b 88 bb
       -0.022506827 -0.022621175 0.07528897 -0.0041536153
0003b0 89 23 97 3d f0 cf 6c b8 a9 5f 96 bd 44 00 ad bd
       0.07379825 -5.646044e-05 -0.073424645 -0.08447316
0003c0 9e 9c 19 bc 99 ec 5b 3d 7d 4d ee bc f0 2a 59 bd
       -0.009375719 0.053692434 -0.029089684 -0.053019464
0003d0 a6 9b 89 3c 2a 2c 14 bd 73 c4 0a bd 57 e5 01 bc
       0.016797852 -0.03617493 -0.033878755 -0.007928214
0003e0 a0 45 84 b8 64 35 b4 bc a2 af e1 3c 56 e3 76 3d
       -6.307219e-05 -0.021998115 0.027549569 0.0602754
0003f0 ab b0 8d bd 04 c3 8a bd 22 a0 e6 bc f5 b8 dc bc
       -0.06918462 -0.067754775 -0.02815253 -0.026943663
