py_file/results/best_lwpi_model.pth (torch, 538517 bytes, 23 tensors)

wavelet_layer.kappa1 f4 [32]
00000000: 1a47 7d40 87d4 2840 d9fd e140 02a2 2141
00000010: a5ab 0941 ee82 7740 3aaf 4240 ccba 0a41
00000020: 8f36 0d41 549b c240 85c6 0641 14bd 9c40
00000030: 8a13 583d 7be4 8940 fabc 4540 b2c9 1541
00000040: aa0c 7e40 209c cc40 52d1 c43f c8f2 ae40
00000050: 8f93 8940 6392 0541 e989 4d3e 5655 3540
00000060: b7b8 9040 ca93 be40 d674 e13f ef6c 7840
00000070: 1262 db40 eb77 1241 52ef 4240 91d8 b340
3.9574647 2.6379716 7.0622373 10.102053 8.604405 3.8673663 3.041945 8.670605
8.82582 6.081461 8.423467 4.898081 0.05275301 4.3091407 3.0896592 9.361742
3.969523 6.394058 1.537638 5.4671364 4.2992625 8.348239 0.2007214 2.8333335
4.522548 5.9555407 1.761378 3.8816488 6.8557215 9.154277 3.045857 5.6201863

wavelet_layer.kappa0 f4 [32]
00000000: 24c6 0ebe 8392 823e 1208 18bf ecbf 663f
00000010: da35 bd3e bfcd 093f f737 153e 26a5 f5be
00000020: ff9d d6be c427 1d40 99fe 01c0 3b89 1ebe
00000030: 6ddc 86bf 36e4 88bf 4c0d 34bf da2a 033f
00000040: dc29 9b3d c818 413f dccc ec3f e867 6bbf
00000050: d748 623f c1f0 e03e ecd1 343f d489 5f3f
00000060: 7764 3abe 0f1b dcbe 2cdb 59bf e801 983f
00000070: c278 e13f 51c1 80bf 7b0e a8bf a119 4b3f
-0.13942772 0.25502405 -0.59387314 0.901366 0.36955148 0.5382957 0.1457213 -0.4797756
-0.41917416 2.455552 -2.0311644 -0.15482037 -1.0536019 -1.0694644 -0.7033279 0.5123726
0.075763434 0.7542844 1.8500018 -0.91955423 0.88392395 0.4393368 0.70632815 0.87319684
-0.18202387 -0.42989394 -0.85100055 1.1875582 1.7614977 -1.0058995 -1.3129419 0.7933598

wavelet_layer.c f4 [32]
00000000: a6a2 1140 6c28 8b3f 0de8 3f40 183f 9a40
00000010: 4067 8840 a5de 943f ab33 1f40 0f39 ad40
00000020: bc58 db3f b232 9a40 dfc7 4140 73dc 843f
00000030: b2cb 1340 215c 4940 497b b440 c102 4240
00000040: fdc2 5740 65ec 9640 74e4 5d40 af11 9d40
00000050: 1922 8f40 0e14 ca40 10ac 8240 b34f af40
00000060: b788 9b40 37cc 6840 1664 c23f 5614 0a40
00000070: 3470 a73f aa4a b340 c182 4240 ee78 d23f
2.2755523 1.0871711 2.9985383 4.820202 4.2626038 1.1630446 2.4875286 5.413215
1.7136455 4.8186884 3.0278242 1.0379776 2.3093076 3.146248 5.6400495 3.031418
3.3712761 4.7163568 3.4670687 4.9084086 4.4729123 6.314948 4.0835037 5.478479
4.860439 3.6374643 1.5186794 2.1574912 1.3081117 5.6028643 3.0392306 1.6443155

features.0.weight f4 [64, 32, 3]
00000000: 4799 dcba 5f33 a3bb d1da e33d 012b 123e
00000010: 9a19 4abd 238f 843d 8379 00bb 094a 173d
00000020: 6c98 59bd 65b7 37bd cb68 b23d 8c0b 7d3d
00000030: 09ec 84bd b089 713c cf3a 093d 695f 03bd
00000040: 11bf 473c ed6c ce3d fe02 c23c f36d 7bbd
00000050: d681 25bd ff2b 7d3d 34e0 28bc c305 27bd
00000060: ed32 19bc 7b4e 02be d321 373d 7a8f aebd
00000070: b7be 463c 6af2 30bd 4b90 b8bd ab47 4dbd
00000080: 76dc 3bbc 623e 96bd a542 d2bc 31b0 1ebe
00000090: 2df1 6d3d 2fc8 ddbc 61e4 56bc cf9f 833d
000000a0: 1921 a93d 8134 b53d c583 533c 2ffc cdbd
000000b0: 5946 b93d 241c ca3d 2c7a ab3d 409d ee3d
000000c0: 8e7b 80bd a39a 1abb 734e 7c3d 5345 62bd
000000d0: a02c 8f3d 029a a5bd c207 96bb 4441 c33d
000000e0: 9e33 9a3d faf8 3dbd d223 00bc fff5 04bd
000000f0: 5dfc df3c 8705 053d 9412 a6bd 44d6 cebc
00000100: b144 a6bc 30f7 2cbd 98c7 833d 0ff9 95bd
00000110: 5985 f4bb 3a5b c73d 6e57 663d 42e3 b8bd
00000120: 54a5 c0bc 3c89 d0bc af2f 353d 9e05 913c
00000130: 8403 82bd 2db3 babd 257e 753d ac87 03be
00000140: 92f7 99bd db1d 523d ef97 843d a919 8dbc
00000150: 86f6 debd ee5b e9bd 614e 47bd 787d c33d
00000160: 132c d33d a613 d53d 39fb 1d3d af00 5dbd
00000170: 1866 ba3d 90dc 1bbd 178f 7b3d 963a d73c
00000180: d05a 5d3c 7af7 f43a 7453 80bd 6167 6b3d
00000190: c322 11bc bde5 d23d 38d2 783d 39a0 d2bc
000001a0: 4aa5 a3bc 63a9 f13c b05a d7bc 7f12 023d
000001b0: 6ce5 143d 43d1 09bd 09c9 15bd c0aa 41bd
000001c0: 7193 e63c 99a8 b5ba d612 ce3d fbbf 17bd
000001d0: 4831 d03d 11f4 acbd 762b 283d 206b 8b3c
000001e0: 1252 0f3e 0948 253e 0395 143e 1630 e03d
000001f0: 0e13 b43c 7d96 86bd 12ad 093e df22 983d
00000200: 92c9 b93d 6ac8 003e c3ad 09bd 7257 003c
00000210: 52e3 953d 6dd1 c6bd 8846 fabd 62f7 b1bd
00000220: a40e 673d ccfd 5e3c 80bc 943d d425 39bd
00000230: 1880 f4bd be85 a23d 1524 2d3d 71f0 353e
00000240: f691 b13d 58c7 c8bd 1e6d 90bd cd69 54bc
00000250: a48e 2bbd a842 bf3d 90bf 16bd ed98 9c3c
00000260: 90ab f53c 7302 d33c b1a9 c03d 43be 51bd
00000270: 396b c1bd e8af 673d f9f4 ee3c 0e7a 87bd
00000280: aeb2 c13d d374 93bd 15f1 d23c 1fd9 05bd
00000290: dc01 8f3d f4ed 903d 3781 98bd 997e 07bd
000002a0: 4b12 53bb df8a f7bb 5cea a23c d016 f43c
000002b0: b801 fcbc fe68 dcbc 65d4 893d e9d0 56bc
000002c0: 83a6 b0bd 72b2 45bd 7016 89bd 0c8c 213d
000002d0: b620 81bd e8d6 08be 9778 9e3c 077d 5cbd
000002e0: 2910 bebd 8fba 02bd fdcd aa3d afdd 473d
000002f0: fd41 90bb 4baa 803d 9fcd 0ebb 03b5 6bbd
00000300: c460 283d ca8a e43c 5068 9f3d b910 0e3c
00000310: f0d6 d33d 6b7f a53d c9aa 1ebd f54f f03d
00000320: 0506 64bd d89b 853d d893 563c f65f b53d
00000330: 4457 c6bd 6a71 34bd 3b74 8bbd 37c8 03bb
00000340: f13f 353d 1f31 a9bb 97ec e43c 95d3 943d
00000350: 8bd7 bfbd 2504 333d b75f cabd 9b67 c13d
00000360: 50c3 6fbd 8ea7 883d a517 db3d 361f 0cbd
00000370: 5401 9cbd 2bda cf3d aa6c 063d 18be 93bc
00000380: 83b3 b63d 5ccc 0ebd 041f 973d 8ae2 0c3c
00000390: 70e1 82bd 4c1a 813c e2ce b8bd 91ec b6bd
000003a0: 6a29 d3bd 35c0 b83b 6072 3dbd 7090 1fbc
000003b0: a31d cdbd 6857 7bbd 62ac 56bc c85f bfbd
000003c0: 330f a33d dea6 723d 803d 1b3c 265f a13d
000003d0: 3750 b63c 9412 8e3d 52fc 06be 1cb5 1abe
000003e0: 3700 86bd f067 8c3d 1b00 6c3c db73 973b
000003f0: fede 743b 710a d6bd 2bd4 ef3c 3a9b aa3d
-0.0016830348 -0.004980489 0.1112572 0.14274217 -0.04934082 0.06472614 -0.0019603677 0.03693584
-0.053123876 -0.044852633 0.08711394 0.06177859 -0.06490333 0.0147423 0.03350335 -0.032073412
0.01219155 0.1007937 0.023683067 -0.061384153 -0.040407024 0.061809536 -0.01030736 -0.04077698
-0.009350521 -0.1272525 0.04470999 -0.0852346 0.012130431 -0.043199934 -0.09011897 -0.050117176
-0.011466136 -0.07336117 -0.025666544 -0.15496899 0.05809133 -0.027072994 -0.013115973 0.064269654
0.08258266 0.08847905 0.012909834 -0.10057866 0.09046621 0.09868649 0.08372912 0.11651087
-0.06273566 -0.0023590706 0.061598253 -0.055241894 0.069909334 -0.08086015 -0.0045785615 0.09533933
0.075293764 -0.04638002 -0.00782104 -0.032461163 0.027342016 0.032475974 -0.08109012 -0.025248654
-0.020296426 -0.042227924 0.06434554 -0.07322895 -0.0074621853 0.09734197 0.056235723 -0.09027721
-0.023516335 -0.025456063 0.044234928 0.017702874 -0.06348327 -0.09116206 0.059934754 -0.12844723
-0.075179234 0.051298004 0.064742915 -0.01722415 -0.10886864 -0.11394487 -0.048658732 0.09545416
0.10311141 0.10404138 0.038569663 -0.05395573 0.09101504 -0.03805214 0.061415758 0.026273053
0.013510421 0.0018689476 -0.062659174 0.057471637 -0.0088583855 0.10297725 0.060747355 -0.025711166
-0.019976277 0.029499715 -0.02628836 0.03175592 0.036351606 -0.033646833 -0.036568675 -0.04728198
0.028146477 -0.001385945 0.100621864 -0.03704832 0.1016565 -0.084449895 0.041057073 0.017018855
0.13996151 0.1614076 0.14509968 0.10946672 0.021981742 -0.06571672 0.13444927 0.07428526
0.090716496 0.12576452 -0.033612978 0.007833349 0.073187485 -0.097079135 -0.12220484 -0.08689763
0.056410447 0.013610315 0.07262516 -0.04520209 -0.119384944 0.079356655 0.04227074 0.17767502
0.08670418 -0.09803647 -0.070520625 -0.012964678 -0.04188408 0.093388855 -0.036803782 0.01911589
0.029989034 0.025758004 0.09407366 -0.05120684 -0.09444279 0.05656424 0.029169546 -0.06615077
0.094579086 -0.07200017 0.025749722 -0.032677766 0.069827765 0.07076636 -0.07446521 -0.033079717
-0.0032206948 -0.0075543965 0.019887142 0.029796034 -0.030762538 -0.026905533 0.06729964 -0.0131113315
-0.086255096 -0.04826588 -0.06693733 0.0394402 -0.06305067 -0.1336323 0.019344611 -0.053830173
-0.09280426 -0.031916197 0.083400704 0.0487954 -0.0044023977 0.06282481 -0.002179004 -0.057545673
0.041107908 0.027898211 0.07783568 0.008670979 0.103437304 0.08080944 -0.038737092 0.117340006
-0.055669803 0.065238655 0.013096772 0.08856194 -0.09684613 -0.044053473 -0.068092786 -0.002010835
0.044250432 -0.0051633264 0.027944846 0.072669186 -0.093672834 0.043705124 -0.098815374 0.09443589
-0.058535874 0.066725835 0.10697869 -0.034209453 -0.07617441 0.10149034 0.032818474 -0.01803498
0.08920958 -0.03486286 0.07378963 0.008598933 -0.06390655 0.01575961 -0.09023835 -0.0893184
-0.103106335 0.0056381472 -0.046251655 -0.009739026 -0.100154184 -0.061362654 -0.013102623 -0.09344441
0.079618834 0.05924117 0.009475112 0.07879476 0.022255046 0.06937137 -0.1318219 -0.1510815
-0.0654301 0.06855762 0.014404322 0.0046219653 0.003736436 -0.1045121 0.029275974 0.08330388

features.0.bias f4 [64]
00000000: d0e8 913d 2deb 193d 58fa 873d 0656 77bd
00000010: 4d2e a4bd d777 cc3d 3b31 a43d 858d a8bd
00000020: 992d 45bc 5519 7abd db71 abbd 0188 dabc
00000030: 617b a13d 3a74 a9bd dcad 43bd 5db9 85bd
00000040: 859c b4bd 9734 61bd 7cc0 d63d 5fcd 02be
00000050: c99b 0b3d e335 613d 721b 813d 52e6 903d
00000060: 6482 77bc 9ead 2bbd 6f95 c3bd 1dd4 a7bd
00000070: d9e7 8e3c cb43 06bb 75e9 82bd e9a4 c9bd
00000080: f12b 463d b086 b53d adda e73c ff3e 823c
00000090: df86 18bd 2397 1dbd e617 d73d 5bff bdbd
000000a0: 8ddc 0e3e bc56 3cbc 2610 70bc 1294 8fbd
000000b0: 02df 423d 160f d93c 6586 a83d 9b95 743d
000000c0: ea43 d6bd 1462 d9bc 4be0 1ebd 4184 21bc
000000d0: 3be8 e3bd f9b1 133e 0f20 ca3d 6c6a 003d
000000e0: 7621 e23c 3e10 053d 824f 43bd 3a01 04bd
000000f0: 959b 99bd b51c bd3d ff80 c43d 32a6 13bd
0.071244836 0.037577797 0.06639546 -0.060384773 -0.08016644 0.09983795 0.080172025 -0.08230118
-0.012034797 -0.061059315 -0.083713256 -0.02667618 0.07884861 -0.082741216 -0.047773227 -0.06529496
-0.08818916 -0.054981794 0.10485932 -0.12773655 0.034084115 0.05498303 0.06304063 0.0707518
-0.015106771 -0.04191362 -0.095499866 -0.08194754 0.017444538 -0.0020487185 -0.06392185 -0.09845907
0.04838175 0.0886358 0.028302515 0.01589918 -0.037237998 -0.038474213 0.10502605 -0.09277221
0.13951321 -0.011495288 -0.014652288 -0.07010664 0.047575958 0.026496451 0.08228759 0.059712987
-0.10462172 -0.026536025 -0.03878812 -0.009858192 -0.11128279 0.1442336 0.09869396 0.03135149
0.027603846 0.032486193 -0.047683246 -0.032227732 -0.07500378 0.09233991 0.095949166 -0.036047168

features.1.weight f4 [64]
00000000: dfa6 683f 8172 813f a30d 833f 60bc 863f
00000010: 4d59 6e3f 856e 853f 8bb8 823f 3bef 7e3f
00000020: b45c 7d3f a635 713f a993 783f 9d34 813f
00000030: 07b1 7f3f cc62 7c3f 5379 7c3f a2a7 813f
00000040: 225a 7c3f 1d48 7c3f 43a0 7e3f a510 773f
00000050: 3121 7a3f fd7a 843f 4e7e 7e3f 8683 773f
00000060: c128 743f 23a3 7c3f 02fe 783f 3652 873f
00000070: f7bd 723f fd00 8b3f 683d 6d3f c923 783f
00000080: 229c 813f 4402 733f 9d79 843f d9dc 6d3f
00000090: 4726 7e3f 449e 7c3f 571e 823f a26f 853f
000000a0: d0a8 743f f3b1 7f3f 9695 793f 6d7f 793f
000000b0: 0f7d 813f 5d46 763f 3470 783f 1774 753f
000000c0: 126b 7c3f 55ce 783f c094 6f3f 1b0e 633f
000000d0: ddc5 803f bbe7 883f 0fdb 823f ed39 873f
000000e0: 5a3f 833f 20cb 863f f0ed 7a3f b5ae 803f
000000f0: 45ad 743f 22e5 5f3f afa1 703f 23ad 6d3f
0.90879625 1.0113069 1.0238537 1.0526237 0.9310501 1.0424353 1.0212568 0.99583787
0.9896958 0.94222486 0.9710031 1.0094181 0.998795 0.9858825 0.98622626 1.0129282
0.9857503 0.98547536 0.9946329 0.9650977 0.97706896 1.0350033 0.99411476 0.96685064
0.95374686 0.98686427 0.97262585 1.0571964 0.94821113 1.0859677 0.92671824 0.96929604
1.0125773 0.9492533 1.0349613 0.9291511 0.99277157 0.98678994 1.0165509 1.0424693
0.9557009 0.99880904 0.97493875 0.9746006 1.011629 0.96201116 0.9704621 0.95880264
0.98600876 0.9718984 0.9358635 0.886934 1.0060383 1.0695719 1.0223101 1.0564553
1.0253708 1.0530739 0.98019314 1.0053316 0.9557689 0.87459004 0.9399671 0.9284231

features.1.bias f4 [64]
00000000: a236 38bd be82 d93b 8cc9 a5bc 08a9 38bd
00000010: 6321 cdbc 33be 64bd 3901 34bc 0d15 edbb
00000020: 5070 67bc 4fc1 7dbd d1ef 44bc 4ce7 61bd
00000030: 2bdb d9b8 aeaf 6bbd 4a91 7c3d 2278 0ebc
00000040: 1344 8bbd 1b94 a9bc a78f 20bd 2ce7 1bbc
00000050: deb9 5ebd 9d51 8c39 77fc b6bc 5c3e a93c
00000060: 7caa 4ebd e566 2bbd 8a68 363c 85b6 63bd
00000070: 14c6 61bd 4897 aa3c 7ae4 8cbd 867d 153d
00000080: a1bd 38bd e7d0 343c b471 8ebc e088 03bc
00000090: 61c2 a03c 4815 5d3d a348 d23c 2a64 7dbb
000000a0: 1c62 63bd d9dd b3bc c359 73bd 587a 79bd
000000b0: eb3b 2fbc b432 0abd 09b5 0abc 4b2c a03d
000000c0: 1735 12bd fa3c 41bd 48c0 a73b 544e 87bd
000000d0: 948c 44bd a858 a4bd 87f4 86bd 2d5f 333d
000000e0: 05b1 b23d 48e4 c3bc 347a 63bd 5eff 66bc
000000f0: e04f 86bd da48 81bc 8f6f ec3a 35c9 bebc
-0.044973977 0.0066379 -0.020237707 -0.045083076 -0.025040334 -0.05584545 -0.01098662 -0.0072351755
-0.0141258985 -0.06195193 -0.012020067 -0.055152223 -0.000103881895 -0.057540588 0.061661996 -0.008695634
-0.068000935 -0.020700505 -0.039199498 -0.009515565 -0.054376476 0.00026763687 -0.022337181 0.020659618
-0.050455555 -0.041846175 0.0111333225 -0.055593986 -0.055120543 0.02082409 -0.06879516 0.03649666
-0.04510272 0.011036134 -0.017388202 -0.008028239 0.019623937 0.053975374 0.025669402 -0.0038664439
-0.055513486 -0.021956371 -0.059411775 -0.06090769 -0.010695438 -0.03373976 -0.008466014 0.07820948
-0.03569516 -0.047177292 0.0051193573 -0.06606737 -0.04798563 -0.08024722 -0.06589609 0.04379194
0.0872517 -0.023912564 -0.055536464 -0.01409897 -0.06558204 -0.015781809 0.0018038618 -0.023289302

features.1.running_mean f4 [64]
00000000: 9212 923d 1cb5 193d 5812 873d 5330 78bd
00000010: ea2f a4bd 9ef7 cb3d b595 a43d 7d9f a8bd
00000020: c60a 48bc 90c1 79bd 307d abbd 5673 dbbc
00000030: 3d7e a13d 5e8f aabd 4dd2 42bd 999c 85bd
00000040: 46a8 b4bd c4bc 61bd db97 d63d 85c5 02be
00000050: 9ac5 0b3d bfec 603d adaf 803d ecd0 903d
00000060: 15bd 73bc c32b 2bbd 4177 c3bd 5e63 a8bd
00000070: e7d1 8d3c 1863 15bb 28f9 82bd f0a4 c9bd
00000080: 623f 473d 0c77 b53d 10a5 e73c 953c 823c
00000090: 11d6 18bd 79e9 1ebd fd0f d73d a228 bebd
000000a0: 04b0 0e3e 0b35 3fbc af68 6dbc 40c6 8fbd
000000b0: caae 423d ab1d d73c 3ddd a73d 67d1 743d
000000c0: 9c0a d6bd 5fb5 d9bc fc94 1ebd c649 22bc
000000d0: 3a2c e4bd 5c93 133e debc ca3d aee3 003d
000000e0: 8a45 e33c a234 053d f046 44bd fe17 03bd
000000f0: 2b62 99bd c73b bd3d fcad c43d 5ad5 13bd
0.07132448 0.037526235 0.06595296 -0.06059296 -0.080169514 0.099593386 0.08036367 -0.08233545
-0.0122096 -0.06097561 -0.08373487 -0.026788395 0.07885406 -0.08328126 -0.04756384 -0.06524009
-0.08821158 -0.05511166 0.10478183 -0.1277066 0.034123994 0.05491328 0.062835075 0.07071099
-0.014876624 -0.04178978 -0.0954423 -0.08222078 0.017312003 -0.002279466 -0.06395179 -0.098459125
0.04864443 0.08860597 0.02827695 0.015898028 -0.037313525 -0.038796876 0.105010964 -0.09285094
0.13934332 -0.011670361 -0.014490291 -0.07020235 0.047529973 0.026259264 0.08196495 0.059770014
-0.10451242 -0.026575742 -0.0387163 -0.009905284 -0.11141248 0.14411682 0.09899305 0.031467132
0.02774312 0.032520898 -0.047919214 -0.032005303 -0.07489427 0.09239917 0.096034974 -0.03609214

features.1.running_var f4 [64]
00000000: d12e 5c35 6520 0336 83a5 8236 d8e2 c735
00000010: 1119 0635 ad52 9434 e1e4 a034 08e8 de35
00000020: 1d5e ff35 ff39 1a35 1ef1 3335 1677 2235
00000030: e383 d535 4094 5a36 3824 9734 e3b3 bd34
00000040: 04c6 6a35 8d43 3a35 fbd1 a135 a218 b035
00000050: ec58 c235 9903 7435 937c 0935 d78e fe35
00000060: c461 1136 b91a 4335 1193 1135 71fa 8e34
00000070: 624d 3e34 8747 5235 7590 9c34 bdab 5634
00000080: 6cf2 9335 d7a9 2d35 e9dd e034 7cce 7f34
00000090: 035a ed35 647e cd36 35fd 8635 dcbe b034
000000a0: 0695 9535 1a67 8135 327a 9035 c98b ce34
000000b0: 6450 af35 1437 8a35 3ba8 0336 cec7 5935
000000c0: 2a67 b034 be60 3a36 4f00 5c35 55d7 1d34
000000d0: 60c8 0635 1258 be35 6686 9935 f88c 3434
000000e0: 588f e933 4469 9a34 59e2 c435 211d 3435
000000f0: c31c 9f35 d809 c534 d1ec a834 f316 db34
8.2024513e-07 1.9539377e-06 3.89357e-06 1.4892676e-06 4.9955366e-07 2.7627303e-07 2.9968854e-07 1.6607819e-06
1.9026371e-06 5.7453866e-07 6.703357e-07 6.0522996e-07 1.5908121e-06 3.2570824e-06 2.8152294e-07 3.5334878e-07
8.7459944e-07 6.93887e-07 1.2056547e-06 1.3120191e-06 1.4480006e-06 9.090232e-07 5.1217756e-07 1.8966047e-06
2.166359e-06 7.268205e-07 5.423072e-07 2.663178e-07 1.772328e-07 7.833518e-07 2.916237e-07 1.9992781e-07
1.1022908e-06 6.469467e-07 4.1884712e-07 2.3823844e-07 1.7684073e-06 6.12419e-06 1.0057471e-06 3.2921423e-07
1.1144737e-06 9.641255e-07 1.07644e-06 3.8472197e-07 1.3061913e-06 1.0297831e-06 1.9618444e-06 8.1129554e-07
3.2857616e-07 2.7772471e-06 8.1956836e-07 1.4700102e-07 5.0210474e-07 1.4181735e-06 1.1438503e-06 1.681509e-07
1.0875982e-07 2.8761326e-07 1.4669014e-06 6.7097614e-07 1.1854794e-06 3.6701272e-07 3.1464745e-07 4.0808627e-07

features.4.weight f4 [128, 64, 3]
00000000: fc62 fdbc 3e52 3bbc 71bd fe3c 2fb2 f3bc
00000010: 55c4 413d a0d7 8a3d cc35 d9bc 6982 a93d
00000020: 2476 56bd eb8d 9ebc 218b bd3c 4d59 90bd
00000030: a348 43bd efd4 35bd db5e 89bd e228 6bbd
00000040: 5122 b73c 7787 063d 9765 e1bb 4266 dbbd
00000050: 881f 91bb 0047 283b f895 8f3c 82e9 86bd
00000060: 6793 b93d cede 263d 2d5d bc3d 1a58 9d3b
00000070: 780f 263d d7a9 6fbd 7ef6 9c3c 7ae0 223d
00000080: 9c2f 5d3d fd73 59bd 0e82 ddbc 6c6a a73d
00000090: 58e5 64bd 8e5b 2db9 7081 513c f9d4 323b
000000a0: 7a38 3d3c 7a29 703c e2de e0bb e5d9 17bd
000000b0: 15cb 60bd d361 c83d 74a0 e43d f93c 89bc
000000c0: 47b3 2dbd 3227 acbd 8e00 91bc 0ba6 f53c
000000d0: e231 47bd 575d 34bd 8826 8bbc 5fcb 89bd
000000e0: 5291 98bd adc1 ff3c 7512 1f3c 93a6 9dbd
000000f0: 0a40 2f3d cd40 86bb cd15 a63b 733f 00ba
00000100: 17be 63bd 2f17 79bd fd48 80bd 8b57 61bd
00000110: e23e 7fbd 9c54 f0bc b712 883d 0f36 c83c
00000120: 9046 6c3c 859d 803c 1953 e8bc ed5f b33b
00000130: 7043 8d3d 6626 c43d d126 913d 8068 82bc
00000140: 7ee9 2bbd dfea e5b9 8f77 253c b39d 133d
00000150: 1985 4dbd ad74 70ba 11b2 883b 7710 ae3c
00000160: 5301 e8bc b6c5 aa3c 8cdf 733d cbe8 133d
00000170: 6f1e 23bd eb95 62bd e191 48bd 642d 3ebd
00000180: fcc7 c93c fd94 603d aedd 68bc ee6d 40bc
00000190: aaae 123c ee4e 24bd 454e 5f3d 3247 083d
000001a0: c0fb 96b8 cda5 04bc 7053 3bbb 9803 143d
000001b0: 272f 61bd b60e 7abc f283 813c 56b6 c9bc
000001c0: 29c8 42bd 68da 40bc 30a7 33bd 4ef5 9b3d
000001d0: 8000 883c 752f 0ebe ea50 0abe 9e90 5ebd
000001e0: aad8 64bc a837 653d 3713 be3c 693d 7e3d
000001f0: ccab 82bc 88d7 3a3d 42ad 5fbd 22c1 76bd
00000200: 44ee e8bd e30b b0bb 260c eb3b bf64 d1bb
00000210: 0f53 c2bd 18c9 01bd 80e6 05bb df20 8b3c
00000220: a4b4 b73d 3395 383c 4b8d d93c 0640 efbc
00000230: 65d0 453d e162 8f3b fcdc 1cbd 26e5 1e3d
00000240: d5aa f93c 7242 27bd c009 893c e124 bebc
00000250: dd50 9ebc af81 8a3c 6f9d d0bd 00f4 e3bd
00000260: f18b adbc f333 b83c 4cf5 e7bc a6df 9fbc
00000270: edfb cabc c463 153d fc23 573d 1208 a43c
00000280: 1bcb 2dbd 9d75 0ebb d94d a9bc 6f3c 4fbd
00000290: 43d1 02bd 8fee 093d d74b f23c 3ad1 d93d
000002a0: 4e21 dfbd 8ff7 9c3c f5e1 6cbd 9e66 e2bd
000002b0: 8c6e 05be d178 bbbc cba2 7c3c ae03 133d
000002c0: d4e6 803d fc74 783d 122f 4c3a a5e8 383d
000002d0: 1417 873c 6459 c0bc ff3c e13c 9046 553d
000002e0: fbc4 533d 6c9e 89ba eb73 fbbc 2b52 c03b
000002f0: 758e 903d c089 363d ccec 453d 16b2 d73b
00000300: 0892 8ebd d94f 39bd 0768 86bd df01 d8bd
00000310: 08fc ffbc 5548 7ebd 6353 803b 73d1 43bd
00000320: f320 8bbc e73a 82bd 103d cabc 8a19 03bd
00000330: 5f86 80bd 1452 4abd 6586 d23c e4a2 98bd
00000340: 4249 773c 5300 1ebb 4845 debc cfb6 2d3c
00000350: 8816 82bd 697b 2cbc c2d4 d83d bd5c 0fbc
00000360: c6c2 18bc c53b 3cbd 7cd2 35bd e2be b5bc
00000370: 1d2a 803d 392b ceba 0728 47bc 0dcc 8fbd
00000380: ce3f ed3c b1a0 b3bd 6ae8 9abd ee3c bfbd
00000390: 9671 02be de1b 36be b382 1fbe 984c 5ebd
000003a0: e80a cc3c ebf4 48bd c650 ad3c a639 b13d
000003b0: 9df0 98bc f4c0 00bd afa2 3abd 4eca 69bb
000003c0: dd23 8dbc a39c 783d d74d 1a3d e966 173d
000003d0: e4ce 543c 1aaf 33bc 801f a03d 83d4 d93c
000003e0: 9bfb 38bd 5b4f 883d a91c 0b3d 96a7 e8bc
000003f0: b420 66bd ebb3 7dbd e9a5 a9bd 5347 0a3d
-0.030930988 -0.011433182 0.031096192 -0.02974805 0.047306377 0.067794085 -0.02651491 0.08276827
-0.05235876 -0.019354781 0.02313763 -0.07048283 -0.047676694 -0.044392522 -0.06707545 -0.057412036
0.02235523 0.032844033 -0.0068785655 -0.107128635 -0.0044288076 0.0025677085 0.017527565 -0.06587507
0.09061318 0.040739827 0.09197459 0.0048017623 0.040542096 -0.05851158 0.019160505 0.03976486
0.054000482 -0.05308913 -0.027039554 0.08174595 -0.05588278 -0.00016532672 0.012787208 0.0027287586
0.01154911 0.014658326 -0.006862507 -0.037073035 -0.054881174 0.097842835 0.111634165 -0.016752707
-0.0424073 -0.084059134 -0.01770046 0.029986402 -0.048631556 -0.04403433 -0.016986147 -0.06728243
-0.07449593 0.031220281 0.00970899 -0.07697787 0.04278568 -0.0040970803 0.005068517 -0.0004892267
-0.055601206 -0.060813125 -0.062639214 -0.055015128 -0.06231583 -0.02933722 0.066441946 0.02443984
0.01442112 0.015700111 -0.028359937 0.0054740817 0.06897628 0.095776364 0.07087482 -0.01591897
-0.041970722 -0.00043853276 0.010099306 0.036039066 -0.05017576 -0.00091726595 0.004171618 0.021248085
-0.028320944 0.020846229 0.059539363 0.03611068 -0.039823946 -0.055318754 -0.048967246 -0.046430007
0.024631493 0.054829586 -0.014213009 -0.011744959 0.008952776 -0.040114336 0.054518003 0.033271022
-7.1994495e-05 -0.008096171 -0.0028583668 0.03613624 -0.05497661 -0.015262296 0.015809987 -0.024623077
-0.04755417 -0.011770822 -0.043860614 0.076151475 0.0166018 -0.13885291 -0.13507429 -0.054337136
-0.013967672 0.05596128 0.023202522 0.062070284 -0.01595106 0.045615703 -0.05460859 -0.06024278
-0.113735706 -0.0053725108 0.007173079 -0.0063901837 -0.094884984 -0.03168592 -0.0020431578 0.016983448
0.08970001 0.011266041 0.026556632 -0.029205333 0.048294444 0.004375801 -0.038296685 0.03879275
0.030476967 -0.04083485 0.016728282 -0.023210945 -0.019325668 0.016907541 -0.10186278 -0.11130524
-0.021184893 0.022485709 -0.028315209 -0.019515824 -0.02477833 0.036472097 0.05252455 0.02002338
-0.042430025 -0.0021737583 -0.020667003 -0.050594743 -0.03193785 0.033674773 0.029577179 0.1063561
-0.10895024 0.019161014 -0.057832677 -0.11054729 -0.13030452 -0.022884758 0.015419672 0.03589218
0.06294027 0.06065844 0.00077889964 0.045143742 0.016490497 -0.023480125 0.027494906 0.052069247
0.051701527 -0.0010499484 -0.030694922 0.00586917 0.070584215 0.044564962 0.04832153 0.006582509
-0.06961447 -0.045242164 -0.065628104 -0.10547232 -0.031248108 -0.0620807 0.0039161905 -0.04780717
-0.016983485 -0.06358891 -0.02468732 -0.032006778 -0.06275629 -0.049394682 0.02569885 -0.07452944
0.01509315 -0.002410908 -0.027132645 0.010602667 -0.06351954 -0.01052747 0.10587455 -0.008750138
-0.009323781 -0.04595544 -0.044390187 -0.022185747 0.062580325 -0.0015729434 -0.012155539 -0.070213415
0.028961089 -0.08770884 -0.07563861 -0.09337793 -0.12738642 -0.17784068 -0.15577202 -0.054272264
0.024907544 -0.049061697 0.02115668 0.08653574 -0.01866942 -0.031434014 -0.045565303 -0.0035673562
-0.017229015 0.060696255 0.03767189 0.036963377 0.01298878 -0.01096704 0.07818508 0.026590591
-0.045161825 0.06655761 0.03396288 -0.028400224 -0.056183532 -0.06193916 -0.08283598 0.033759426

features.4.bias f4 [128]
00000000: d01a df3d 4be5 a6bd 2f7a 933c 8541 6a3d
00000010: 28c8 31bc ce27 b13c 4370 0fbd d186 dd3c
00000020: 5384 80bd a77d 513c 7b74 f83a b5b7 a83d
00000030: 4148 443c 781e da3c 5fd9 c43b 3fa9 4c3d
00000040: 74ed 863d 069d 85bd 6b1a 9dbd 37b7 fc3c
00000050: c96b 1f3d 71e9 c93b 0974 b9bd 2331 b1bd
00000060: f08e 34bd 696b 213c efdd 073b b01e c23d
00000070: 6de0 86bd c250 ae3c c93c 92bd 4f1d 1b3d
00000080: 0f9c 5d3d 860f c2bd 5858 57bd 7177 0cbe
00000090: 7e65 b13d 5c3c 40bc 03a7 83bd 104a b9bd
000000a0: fa9d 693c 41d6 95bd b0c3 d53a 95a7 4dbb
000000b0: 3176 043c a031 cdbc 1751 3d3d 3028 d9bd
000000c0: e8dc 31bc ee19 30bc 81df 863d 3376 0f3d
000000d0: 9361 153d 6e14 f33b 206c 78bd 5a40 84bb
000000e0: 1ac7 013c 6280 1c3d 0a4d e53a d3c8 6c3d
000000f0: c819 b1bd 1a59 243c 5abc b0bd e741 93bc
00000100: db8a a1bc b83d 8bbd af3c 24bd ac30 4cbd
00000110: 0db5 9a3c e120 87bc b1b6 70bc a7a6 213c
00000120: 9c64 75bd 0a3b 023d 1218 973c c786 283d
00000130: 36d7 353d 8cb6 36bd 75cc 57bd abee 083c
00000140: 8a60 853d 843b 273d 2402 c1bd 4bbc 593d
00000150: 80c1 bd3b a5fa 64bd f344 c6bd e283 1f3d
00000160: 0cc1 fb3c 927e 57bd d5fc 81bd 0124 9d3b
00000170: b4ae 91bb c242 b43c 9060 763d c1c9 243d
00000180: a5be a43d f8c2 8cbd c487 ee3c 59a8 71bd
00000190: c7e2 563d 1634 793d 2d2a 41bd a783 14bd
000001a0: a620 a73c 478a a5bc 1b6f 823d 2110 4ebc
000001b0: 623b a8bc d073 be3c 3dfd 853d 190f 983d
000001c0: 73ec 193d 6b62 e1bc 234e 9fbc 57f2 0fbc
000001d0: 4023 853d 92f9 863d a99a df3c edea 903d
000001e0: d64f 57bd 67ad a9bb 126e 96bc e72e c83d
000001f0: 7b67 48bd c543 a23d 9368 36bc c102 683d
0.10893786 -0.08149203 0.018002598 0.05719139 -0.010850944 0.021625426 -0.03501917 0.027041825
-0.06275239 0.0127863055 0.0018955612 0.08238164 0.011980117 0.026625857 0.006007358 0.049966093
0.06588259 -0.065240905 -0.076710545 0.030849082 0.03892115 0.0061618616 -0.09055335 -0.0865195
-0.04408163 0.009852269 0.0020731648 0.094785094 -0.065857746 0.021278743 -0.071405 0.037869748
0.054103907 -0.09475617 -0.052574486 -0.13717438 0.08661936 -0.011733141 -0.06428339 -0.090473294
0.014258856 -0.07316256 0.001630893 -0.0031380404 0.00808482 -0.025048077 0.04621991 -0.10603368
-0.010855891 -0.01074837 0.06585599 0.035024833 0.036470007 0.007418207 -0.06064999 -0.0040359916
0.007921005 0.038208373 0.0017494273 0.05780871 -0.086474955 0.010031009 -0.08629675 -0.01797576
-0.019719532 -0.06798881 -0.040096935 -0.049851105 0.01888516 -0.01649517 -0.0146919945 0.009866393
-0.0599104 0.031794585 0.018444095 0.04114416 0.044394694 -0.044607684 -0.05268522 0.008357684
0.06512554 0.040828243 -0.094242364 0.053158086 0.0057908893 -0.055903096 -0.0968112 0.038944133
0.0307317 -0.05261094 -0.06347052 0.0047955518 -0.004445875 0.022004489 0.060150683 0.04023147
0.08044175 -0.06873125 0.029117472 -0.05899844 0.052462365 0.06084069 -0.047159363 -0.036258366
0.02040131 -0.020207537 0.06368848 -0.012577088 -0.020536128 0.023248583 0.06542442 0.07424755
0.03757901 -0.02751275 -0.019446438 -0.008785806 0.06500864 0.065905705 0.027295427 0.070760585
-0.05256637 -0.005178142 -0.018363032 0.09774571 -0.04892681 0.07923082 -0.011133331 0.05664325

features.5.weight f4 [128]
00000000: 2876 763f e7c8 803f 495d 843f 1c6a 793f
00000010: 6c63 763f 9947 823f 68aa 7e3f 2de4 873f
00000020: 2005 6a3f 4a1e 7d3f af92 7c3f 8f20 7c3f
00000030: 0253 853f 7e0c 703f 4559 7d3f 1126 7e3f
00000040: 9ee5 833f 980e 833f b273 823f 9ee8 873f
00000050: 80aa 733f e1a4 7c3f 28c5 7d3f 83a8 833f
00000060: 118c 833f ca84 853f da6e 803f 4b98 6a3f
00000070: 1937 833f ef36 783f ce83 743f d70e 7e3f
00000080: d95a 843f 020b 853f 916c 833f af32 823f
00000090: d0cf 7b3f 0767 683f 32b6 823f e938 7a3f
000000a0: 7b84 7a3f 8d23 6c3f d066 843f 1e64 773f
000000b0: 4283 7b3f 96fd 743f 88c2 7c3f 7e08 6a3f
000000c0: 922e 803f a070 6f3f 32f9 6f3f 51e9 6a3f
000000d0: 5188 813f 2415 833f 65a8 7a3f a536 793f
000000e0: 9bbf 683f d26f 7e3f c570 803f 506a 863f
000000f0: 2196 823f 0472 7d3f 99c7 803f c1cb 893f
00000100: e0f4 803f 7247 813f c54a 823f f82d 793f
00000110: 452e 6b3f 41aa 783f 9321 6e3f 3898 653f
00000120: 0dae 833f 0ba0 803f cd14 693f 5891 7d3f
00000130: 9b40 843f a458 753f 8137 7d3f 3838 7d3f
00000140: b8b9 803f 06f8 773f c4e8 6d3f 0a8e 803f
00000150: 091e 6b3f ad22 7d3f 564d 7d3f 581a 853f
00000160: a5bd 833f 97e4 7a3f 9529 733f 03a5 7a3f
00000170: f6ac 803f 13ff 7c3f 9d76 833f d924 833f
00000180: ef7b 833f 8448 7f3f 616e 6e3f aa41 7e3f
00000190: fddd 823f c576 823f c69d 813f db10 703f
000001a0: fa0c 7c3f 043a 823f f7fb 6f3f 112e 883f
000001b0: 8bf6 843f ce3b 833f 2a00 833f 79b1 763f
000001c0: a091 803f d4a9 7c3f d9d4 763f b998 7a3f
000001d0: fbd5 833f a3db 7a3f 8524 7e3f f2ec 7b3f
000001e0: 443e 823f 0ad8 6d3f 88f9 7c3f 9d09 813f
000001f0: 7736 723f 6672 813f 7947 703f 3611 713f
0.9627404 1.006131 1.0340968 0.97427535 0.96245456 1.01781 0.9947877 1.0616509
0.9141407 0.9887434 0.9866132 0.9848718 1.0415957 0.9376906 0.9896434 0.99276835
1.0304449 1.0238829 1.0191557 1.0617864 0.9518204 0.98689085 0.9912896 1.0285801
1.027712 1.0431149 1.0033829 0.9163863 1.025119 0.9695882 0.9551362 0.99241394
1.0340225 1.0393984 1.0267507 1.0171717 0.9836397 0.9078221 1.0211852 0.9774309
0.978584 0.92241746 1.0343876 0.9663714 0.9824716 0.9569944 0.9873433 0.9141921
1.0014212 0.9353123 0.93739617 0.9176226 1.0119725 1.0240827 0.979132 0.97349006
0.90917367 0.99389374 1.0034415 1.0501194 1.0202066 0.990021 1.0060912 1.0765306
1.007473 1.0099928 1.0179068 0.9733577 0.91867477 0.97134787 0.9301998 0.8968539
1.0287491 1.0048841 0.91047364 0.990499 1.0332216 0.9583838 0.9891282 0.9891391
1.0056677 0.9686283 0.929333 1.0043347 0.91842705 0.98881036 0.9894613 1.0398664
1.029225 0.9800505 0.94985324 0.9790804 1.0052783 0.9882671 1.0270573 1.024562
1.0272197 0.99720025 0.93137175 0.99318945 1.0223995 1.0192496 1.0126274 0.9377572
0.984573 1.0173955 0.9374384 1.0639058 1.0387739 1.0252626 1.0234425 0.9636455
1.0044441 0.9869664 0.9641853 0.97889286 1.0299677 0.9799139 0.99274474 0.98408425
1.0175252 0.92907774 0.98818254 1.0081059 0.94614357 1.0113037 0.9385906 0.94166887

features.5.bias f4 [128]
00000000: 691d 00be b1b2 0a3c e696 30be f64f 77bd
00000010: ff3f dbbd 2c5e 76bd bda8 44bd 2acb 33bd
00000020: f0c1 12be 8d14 2abd bd78 3bbe d71b 9dbd
00000030: bc3c f0bc 1695 afbc f549 d7bd b119 92bd
00000040: ec07 a1bd da32 9ebc 03b3 14be 405f 4ebd
00000050: f140 b6bd 7cba 81bd 4009 30bd e1e9 13bd
00000060: 3248 75bd f003 6d3c 0c74 96bd ccfa f0bd
00000070: 36b0 1dbd cb4a 12bd 01f0 59bd a6fa edbd
00000080: c836 44bd 9d3d 62bd 8b0b 1bbc 7a7e a4bc
00000090: 6201 07be 9897 96bd 4385 c8bd d9ed 73bd
000000a0: f968 c2bd ec89 4fbd bf12 c3bd 5fd1 b4bd
000000b0: 304e 07be 4917 22be b2db 20bd 2c9f f2bd
000000c0: aa08 2fbd 6d57 febd a6cb f0bd 6045 babd
000000d0: 41be c3bc 2a26 7dbd acdb 7fbd 95c1 cebd
000000e0: 2016 f3bd 67a3 d0bd 8a23 36be 40f1 5fbd
000000f0: 8c79 9abd a08e 87bd 2944 dbbd 6b34 45bc
00000100: 443b b5bd c6c2 05be ccc6 43bd 0885 72bc
00000110: 2996 06be 16e4 23be 0f1a abbd 1ca0 29be
00000120: 79c4 9dbd 806e 52bc f025 c5bd 298b 0dbc
00000130: 8bb9 83bd 47ff ddbd 35b5 2ebd 6996 72bd
00000140: 02b5 94bc a005 cdbd 45d7 01be 4199 48bd
00000150: 9e49 0fbe 446a 8abd f9f1 f9bd 454b 75bc
00000160: 6ae6 13be afbd cabd 3996 54bd 31da 95bd
00000170: 52ba 12bd 3a07 11bd fe25 1fbd af08 6dbd
00000180: 2cf0 16bd 4a45 94bd 3668 aebd b3e9 78bd
00000190: 2fc8 27bd f498 c4bc 5c30 1abd c119 c9bd
000001a0: 6c26 7dbd 6c47 c43c c011 bdbd a0ba 31bc
000001b0: ac37 06bd 17a7 f8bc ba0e c8bc 236f a9bd
000001c0: 1468 cfbd 8ca3 9cbd 4fd5 e5bd f9bb 5fbd
000001d0: 1669 b8bd 0bc6 25bd 7bb6 afbd bb1c d8bd
000001e0: eef5 3bbd 3106 4bbd 2d6e d8bd e0f3 a6bc
000001f0: 22e3 c5bd b30c 89bd effc a2bd ceb3 49bd
-0.12511219 0.008465455 -0.17245063 -0.06037899 -0.10705566 -0.060148403 -0.048012484 -0.043894924
-0.14331794 -0.041523505 -0.18307777 -0.07671326 -0.029325835 -0.021433394 -0.10512153 -0.071338065
-0.07862839 -0.019311357 -0.14521413 -0.050383806 -0.08899105 -0.06334397 -0.04297757 -0.036111716
-0.059883304 0.014466271 -0.07346353 -0.11766586 -0.038498126 -0.03571586 -0.0532074 -0.11620073
-0.047903806 -0.05523454 -0.009463201 -0.02007984 -0.13184121 -0.07353133 -0.09791043 -0.059553
-0.09492678 -0.050668642 -0.0952506 -0.08828997 -0.1321342 -0.15829195 -0.039272018 -0.11846766
-0.042732872 -0.12419019 -0.11757593 -0.090952635 -0.023894431 -0.061803974 -0.062465355 -0.100955166
-0.118694544 -0.101874165 -0.17786995 -0.054673433 -0.075427145 -0.066190004 -0.1070636 -0.012036423
-0.08849195 -0.13062581 -0.04779701 -0.014802225 -0.13143219 -0.16004977 -0.0835458 -0.16564983
-0.0770349 -0.012843728 -0.09626377 -0.008639135 -0.06431874 -0.10839706 -0.04265328 -0.059225474
-0.018152718 -0.100108385 -0.12679775 -0.04897428 -0.13992926 -0.0675855 -0.12204356 -0.014971559
-0.14443365 -0.098994605 -0.051901076 -0.07317007 -0.03582222 -0.035407282 -0.03885459 -0.05786961
-0.03685014 -0.07239778 -0.085159704 -0.060769748 -0.040962394 -0.023998715 -0.037643775 -0.09819365
-0.06180422 0.023959838 -0.09231901 -0.0108477175 -0.032767937 -0.030353112 -0.024421085 -0.08273151
-0.10127273 -0.076483816 -0.11222326 -0.054622624 -0.090044186 -0.04047207 -0.08579727 -0.10552355
-0.045888834 -0.04956645 -0.10567889 -0.02037996 -0.09662463 -0.06691875 -0.079583995 -0.04924374

features.5.running_mean f4 [128]
00000000: 2ac1 263d 3e41 d3be 825b b13c 05a1 7ebe
00000010: bba3 02bd 9bb2 62be 004e 963e 4234 83be
00000020: b8f5 47be b631 27be 98b8 21be b611 5ebe
00000030: 2c22 8abe 414e 8bbe 33bc 7fbe 533d 34be
00000040: 176b b8be e61f cebe eb8f 43be 47b7 6dbd
00000050: d3b6 ca3e 0010 cc3d 454e 05be c003 91be
00000060: c636 8fbe d00e 80be d670 83be 4de3 efbd
00000070: 9267 c4be c055 b73d 17a2 4fbe 5eb6 0abd
00000080: e76a 6b3d 99ae 4abe 4382 78be d56c ccbe
00000090: 27f5 c7bd 7981 8bbe a4f4 cdbe a6f8 7c3d
000000a0: fc46 87be f9c5 0abe c79d 1cbe 0c70 c73b
000000b0: 9ee1 77be 8c7a eabd c053 2a3e 41b7 edbd
000000c0: 9992 d9bd 60d9 423e 8a60 4ebe 96b3 4abe
000000d0: 16c8 63be 287d 87be 923f a1be 9bf7 afbe
000000e0: 3e05 08be fd1c 24be 04e0 31be 1b6a 1bbe
000000f0: 29f4 9ebe 2ebd 66be 8482 92be f648 d2bd
00000100: 2b1e edbd 82f4 e03c f776 b2bb 73c5 84be
00000110: 0fe4 bcbd 53e5 0bbe 4e96 a2be adc7 9bbd
00000120: cd94 c1be 8c8d afbe d319 aebd 144f 043e
00000130: 36da 0f3e 4c43 9cbe 4c1d 2cbd be21 6b3e
00000140: b816 99bc d3de 80bd 6c24 43be 4d84 80be
00000150: 3281 cbbd 9967 6a3d 9369 48be a875 79be
00000160: 3128 b2bb ff7c 40be d2bb db3d a202 e03d
00000170: cd89 95be 5062 77be a9cf 1dbe e8b8 4dbe
00000180: 1042 d8bd 8f63 aebe 6881 51bd 45fd 16be
00000190: b902 a3bc 8096 3ebd 8ba9 8fbe 552b 1d3d
000001a0: 30c2 e7bd 581c 95be 9101 eabc 5920 7fbe
000001b0: d0ce fcbd d93c 7fbe e014 55be 6007 0abe
000001c0: bef1 d6bd c9db f03d 1469 70be 3ca4 aebe
000001d0: 0693 32be 81a3 8a3e 36da 44be a093 7f3e
000001e0: 2bc7 ecbd db8d 83be 1fad 2fbd bb15 febd
000001f0: 6bde 5bbe f732 ebbd 942e 5cbe 2509 4cbe
0.04071156 -0.41260713 0.02165008 -0.24866112 -0.031894427 -0.22138445 0.29356384 -0.25625807
-0.19527328 -0.16327557 -0.15793073 -0.21686444 -0.26979196 -0.2720814 -0.24974136 -0.17601518
-0.36019203 -0.40258712 -0.19097869 -0.058036115 0.3959261 0.09963989 -0.13018139 -0.28323174
-0.27971476 -0.250113 -0.25672024 -0.11713276 -0.38360268 0.089519024 -0.20276676 -0.033865325
0.057474997 -0.19793166 -0.24268441 -0.39926782 -0.09763556 -0.27247217 -0.40225708 0.061760567
-0.26421344 -0.13552083 -0.15294562 0.006086355 -0.2420716 -0.11449155 0.1663351 -0.116072185
-0.106236644 0.19028234 -0.20154014 -0.19795069 -0.22244295 -0.26462674 -0.31493813 -0.34368595
-0.1328325 -0.16026683 -0.17370611 -0.15177195 -0.31045654 -0.22533104 -0.286152 -0.102678224
-0.1157802 0.02746034 -0.0054463106 -0.25931892 -0.09223186 -0.13661699 -0.31755298 -0.076064445
-0.37808838 -0.3428768 -0.08501019 0.12920791 0.14048085 -0.30520093 -0.042020127 0.2296209
-0.018687591 -0.062925 -0.19056863 -0.25100937 -0.099367514 0.057227705 -0.19571523 -0.24361289
-0.00543692 -0.18797682 0.10729183 0.10938002 -0.29206696 -0.24158597 -0.15411247 -0.20090067
-0.105594754 -0.34060332 -0.051148802 -0.14745052 -0.01989876 -0.046530247 -0.2805904 0.038371403
-0.11316335 -0.29123187 -0.0285652 -0.24914683 -0.12344134 -0.24925555 -0.20808744 -0.13479376
-0.104953274 0.11760671 -0.23477584 -0.34109676 -0.17438897 0.2707787 -0.19223866 0.24958658
-0.11561426 -0.25694165 -0.04288971 -0.124064885 -0.21471564 -0.1148433 -0.21502143 -0.19925363

features.5.running_var f4 [128]
00000000: 61af 703d 4b49 ce3d 194a 003d 3619 b03d
00000010: 927a 1a3d 7cbe 4a3d a03a 713d 6bed 263d
00000020: 2fb8 de3c 9e32 e73c 7bb9 b83c afb8 613d
00000030: c024 b43c eb32 6c3d 552a 503d e723 eb3c
00000040: bc29 b33d 2d25 843d 56d9 eb3c 2fef e03c
00000050: e589 783d ccfb a63c 766d 1f3d d0fd f23c
00000060: 36b3 393d ff91 633d d490 f63c e643 683d
00000070: 14d3 3e3d 7317 e53c c1e6 073d 917c 393d
00000080: 80a0 753d b1de 513d 2ec6 333d 7ef9 1b3d
00000090: f2b1 4e3d 627d dc3d 0f65 5c3d fd2c 683d
000000a0: d271 493d 5fe4 f23c e6b7 c53c daf1 e63c
000000b0: 9a2c 263d d5c9 293d 444c c83c a31d b73c
000000c0: 5054 a83d 3394 b43d 872a 833d c376 223d
000000d0: 9968 9e3d e145 1d3d 721d 0b3d 3c68 8e3d
000000e0: ad75 293d 2033 773d 722e 1b3d ccf6 d63c
000000f0: 8c1e 673d 2c6d 0d3d 2638 b13c 3b20 af3c
00000100: 2d3b dd3c 1cf9 963c 464a 0d3d 0770 bd3c
00000110: d531 643d 48f5 833d 937e 223e df36 013d
00000120: 4108 6e3d 09de d83d 964a e43c 81b7 f53c
00000130: 9eb3 393c 0738 9f3d 4031 873c 828e 213d
00000140: 7baf 413d fea7 e93c e268 553d 7d46 623d
00000150: 2326 7f3d 3344 223d 0ff4 5e3d 9962 693d
00000160: 0324 933c 32ae 143d 0bde 453d 6edc 973c
00000170: 275f 053d cda7 013d 502d 643d 5119 8c3d
00000180: 2377 7e3d 796a c33c 17ea 853d b51d 373d
00000190: 0e16 1e3d a84b 083d ab1f ed3c 879b 5c3d
000001a0: 805b 3e3d 924a 8b3d 173b 5e3d 4684 c93c
000001b0: 1616 263d 694f 803d 496f 773d 2cb8 e13c
000001c0: 718c e23c 90a8 673d c297 2e3d 428d cc3d
000001d0: acaf 3a3d 67a6 003d b5f9 d73c 9b3c 543d
000001e0: 581c 6b3c 63ce 173d 7394 e03c 0d99 7b3d
000001f0: f95f 2e3d f57a ff3c 4e49 2d3d 1648 8c3d
0.058761004 0.10072573 0.031320665 0.085985586 0.03771455 0.049498066 0.0588938 0.040753763
0.027187435 0.028222378 0.022549381 0.05510777 0.02199018 0.057665747 0.05082162 0.028703643
0.087481946 0.06452403 0.028790157 0.027457802 0.06067838 0.020383738 0.03892275 0.029662043
0.045336924 0.055559155 0.030098356 0.056705378 0.04658802 0.027965283 0.03317905 0.04528481
0.059967518 0.051237766 0.04389017 0.03807973 0.05046267 0.107661024 0.053807314 0.05668353
0.049180813 0.029649911 0.024135541 0.028191496 0.04056988 0.041452248 0.024450429 0.022353
0.08219206 0.08817329 0.06404596 0.03966404 0.07734794 0.03839672 0.033963628 0.06953475
0.04137199 0.06035149 0.03788609 0.026240729 0.056425616 0.034527943 0.021633219 0.021377673
0.027005756 0.018429331 0.03449466 0.023124708 0.055711586 0.06443268 0.15868597 0.03154647
0.05811334 0.10589225 0.027867597 0.029994728 0.011334328 0.07774358 0.016502976 0.039442547
0.04728649 0.028522488 0.052101977 0.055243004 0.06229223 0.03961582 0.05443197 0.056978796
0.017961508 0.036298938 0.04830746 0.018537726 0.032561447 0.031654168 0.055707276 0.06840766
0.062125336 0.023854481 0.0653879 0.044706065 0.03859525 0.033275276 0.028945765 0.05385926
0.04647398 0.068013325 0.05425557 0.024599206 0.040548407 0.06265146 0.060408864 0.02755364
0.027654858 0.056557238 0.042625196 0.0998788 0.04557769 0.031408694 0.026364187 0.05181561
0.014350019 0.03706206 0.027414536 0.061425257 0.042571995 0.03118656 0.042306237 0.06849687

features.8.weight f4 [256, 128, 3]
00000000: 44e0 8dbc afff cebc a221 4b3c 202d b9bc
00000010: 9208 94bd b269 21bd 3bad 7ebd 35d8 62bd
00000020: 40c0 7cbd 9272 643a 215d 0fbd fd46 fcbc
00000030: 74b5 403d 1dd6 153d db3c bcbb 101b 4cbd
00000040: 5901 7dbd 3147 0cbd 1327 6c3d ebda 643a
00000050: 04c1 6e3c b6ea 84ba cbe5 a9bc 0a7e 533c
00000060: 8a5d b5ba 9e88 623c 6e4f 8ebb 7a2d 1abd
00000070: 3124 d4bb ccec bb3c 6789 2dbd 5c14 60bd
00000080: c055 cabc 951c 38bd cad1 85bc f465 1f3b
00000090: ce54 423d 0f4f f8bc c17f 1b3d 0233 373d
000000a0: 174e 9cbc f023 11bd 8d0a df3c 6e24 b53c
000000b0: bf93 743d 4bcf 18bd aeac c43c 3b98 eebc
000000c0: 976c 8bbc 8ac1 6fbd 2f4a a8bd dd1d b93b
000000d0: 5abb 963c 663b 153d bddc 93bd 5028 37bd
000000e0: 74e2 803b 8f82 853c 3906 25bd d091 25bd
000000f0: 9924 2fbc 8940 43bd ece3 c4bc ebfb 0f3c
00000100: d1d4 eb3b 5005 873a 318f 00bc d36e 18bd
00000110: 50ca 50bd 6ae2 9fbc 7ce8 633b 0df4 e53b
00000120: 9a81 6d3d 1486 dfbb d6bf 433d f0bb b83d
00000130: 341d 203d 26be 723d 27b7 8fbc 300e e43b
00000140: e0fd 49bd 62f1 a23a 5d21 a9bc ed3a e53c
00000150: c732 b7bc bd39 353d f814 183d e8d9 89bd
00000160: 0017 7bbd 7393 a1bc 7790 a4bd a9a7 a0bc
00000170: ba60 53bd fe1d f3bc eb38 03bc 6dc9 213d
00000180: a06c 3b3b 33d5 f93c f150 393d 3d5d 793c
00000190: f119 aebc 5ab4 503c bf9a b1bc f0c7 cbbc
000001a0: 2ec9 bebd 9e9b 1d3c 47da c03c 98b1 18bc
000001b0: b429 323d af75 7d3b 6d01 fd3c f32b 2e3d
000001c0: 0615 7ebd 7549 2f3c de81 89bd 4fe8 9fbd
000001d0: 41e8 d5bc fdf9 2b3b a5b1 3dbd c235 de3c
000001e0: 3fc2 9bbc 6721 a6bc e84a 3cbd af9f 303b
000001f0: 760c 27bc adc1 97bb dbcf 133a 03eb 9bbd
00000200: 3b80 2abd ce59 673d 13cd 8d3c ff39 ef3c
00000210: 847b 56bd 4fd0 72bd 180d 34bd 514b 623c
00000220: 1e72 8f3a 269f 2bbc d865 dbbc 38fa 943c
00000230: f3b5 4e3c 1aa8 50bb 49a6 2f3d 2787 a5bc
00000240: b7d7 b2bc c228 243d 6a06 fa3b eaf4 d33c
00000250: 5fda b5bb 2f04 7cbd ad82 f4bc 7521 fb3b
00000260: 3761 8abc ddb4 2f3d 55b9 36bc b208 2d3b
00000270: 0767 673c 360a 82bc b6e5 86bc 697f 393c
00000280: 4637 c8bc 4b61 ad3c d190 023d 0571 1fba
00000290: 7712 e4bb 67f4 a2bb ca5b 253d 1bc7 723d
000002a0: 8f71 be3b 7630 fcbc 8ecf 4c3c d503 2cbd
000002b0: b953 58bd 4884 843a c31b 8d3c c98f 05bd
000002c0: d7a1 4dbc e70f 993c 0f95 8c3d 434d 87bb
000002d0: c1af 303d 793a 823b 9150 ab3b 88e6 863d
000002e0: ee37 8cbc 1efa 0d3c 5200 3ebd 85a5 303d
000002f0: 06fb 3b3d dbcd 03bd 775e 733c 7625 24bd
00000300: 3bf8 8bbd b047 edbc e7a3 9abd 4fcf 473c
00000310: b0e6 15bd ac7b 64bb 25c6 a03d 4bc7 7d3b
00000320: f8bc 6d3d 0818 0d3a a5d4 833d 4540 21bc
00000330: 633c c63c d822 be3b 1f35 793b 748b 8f3c
00000340: 7bb3 b7bb d0af 42bd da01 9e3c d453 dc39
00000350: a4dd 5abd f0f6 913c 597b 833c 69e0 3abd
00000360: cd90 2dbd 3070 57bd 8764 66bd 972c 9ebb
00000370: aa5e 2d3d d88c 4a3d 5a7e e93c ad39 4fbc
00000380: de76 1e3c 57fd 413c 2e89 e7bb 00df 96bc
00000390: 54bd ad3c 2137 3a3c 771e 94bd 0984 bd3d
000003a0: 29ae fc3c 694f 573d 26ae 5abd 9730 a5bc
000003b0: 12d0 b8bd f2ab e6bc 8315 03bd 8efe 91bd
000003c0: 315e bebc 7d02 85bc 260c 6cb9 dd83 bc3b
000003d0: 16bf e8bc 943c e33c af56 8d3b 48f8 293d
000003e0: 9e18 313d bf73 9fbd 4f98 74bc 8ac7 bdbb
000003f0: 4349 a6bd 3509 8ebc 7815 d23c eb7d 8abc
-0.017318852 -0.025268404 0.012398155 -0.022604525 -0.07228197 -0.03940744 -0.062176924 -0.055381972
-0.06170678 0.0008714582 -0.035000924 -0.030795569 0.047048047 0.036581147 -0.005744559 -0.049830496
-0.061768863 -0.03424758 0.05765445 0.0008730131 0.014572386 -0.001014075 -0.020739457 0.012908468
-0.0013837081 0.013826517 -0.004342965 -0.037641026 -0.006474041 0.022940062 -0.042367365 -0.054706916
-0.024699092 -0.044949133 -0.016335387 0.0024322243 0.047444157 -0.030311136 0.037963632 0.04472638
-0.019080205 -0.035434663 0.02722671 0.022112098 0.059711214 -0.037307065 0.024008121 -0.029125324
-0.017019553 -0.058534183 -0.082172744 0.005649312 0.018399883 0.0364336 -0.07219837 -0.04471618
0.0039332453 0.016297607 -0.040289138 -0.04042226 -0.010689878 -0.047668967 -0.024034463 0.008788089
0.0071970006 0.0010301266 -0.0078466395 -0.037215065 -0.05097419 -0.019517142 0.0034776023 0.0070176185
0.057984926 -0.0068214033 0.04779037 0.09020221 0.03909035 0.05926337 -0.017543389 0.006959699
-0.04931438 0.0012431557 -0.020645792 0.0279822 -0.02236308 0.044244517 0.037129372 -0.067310154
-0.06130123 -0.01972363 -0.08035367 -0.019611197 -0.051605918 -0.029677387 -0.008009176 0.039498735
0.002859868 0.03049717 0.045243207 0.015219984 -0.021252604 0.012738312 -0.021680234 -0.024875611
-0.09315716 0.009619622 0.023541583 -0.009319685 0.043496802 0.0038674881 0.030884469 0.042522382
-0.06203177 0.010698666 -0.06714223 -0.07807981 -0.026111724 0.0026241534 -0.046311993 0.027125243
-0.019013522 -0.0202796 -0.045969874 0.0026950648 -0.010195842 -0.0046312422 0.0005638578 -0.07613184
-0.041626196 0.05648213 0.017309701 0.02920246 -0.052363887 -0.05928069 -0.0439578 0.013811902
0.0010944044 -0.010474956 -0.026781961 0.01818572 0.012616622 -0.0031838478 0.04288319 -0.020206047
-0.021831376 0.040077932 0.007630159 0.02587362 -0.0055497135 -0.061527427 -0.029847467 0.0076639005
-0.016892059 0.042897094 -0.011152585 0.0026402888 0.014123685 -0.01587401 -0.016466957 0.011321881
-0.024440419 0.021164557 0.03187639 -0.000608221 -0.006960209 -0.0049729827 0.04037074 0.059271913
0.005811877 -0.030784827 0.012500657 -0.041995842 -0.05281422 0.0010110224 0.017225152 -0.032607827
-0.012550793 0.01868434 0.06864368 -0.0041290834 0.043136362 0.0039742556 0.00522811 0.06586939
-0.017116513 0.00866559 -0.046387024 0.0431266 0.04589369 -0.03217874 0.014854065 -0.040074788
-0.068344556 -0.028964847 -0.07550793 0.012195422 -0.036596954 -0.0034863753 0.07850293 0.0038723524
0.058041543 0.0005382304 0.06437043 -0.009841983 0.024198717 0.0058024935 0.0038026047 0.017522551
-0.0056061125 -0.04753095 0.019287992 0.00042024127 -0.05343403 0.017817944 0.016050028 -0.04562417
-0.04237442 -0.052597225 -0.056248214 -0.004827093 0.042326607 0.049450725 0.028502632 -0.012648028
0.009671895 0.011840186 -0.0070659136 -0.018416882 0.021208443 0.011365683 -0.07232373 0.09253699
0.030844765 0.052565966 -0.053388737 -0.020164771 -0.09024061 -0.028158162 -0.032002937 -0.071286306
-0.023238273 -0.016236538 -0.0002251124 0.005753024 -0.02841143 0.027738847 0.004313312 0.041496545
0.043236367 -0.07785749 -0.014928891 -0.005791609 -0.08119442 -0.017338375 0.025645003 -0.016905745
